IWD-QUEEN demo/main/model/model_IWD_QUEEN.pt (torch, 228600 bytes, 24 tensors)

cls_token f4 [1, 1, 64]
00000000: f556 523f b1a0 d3be 45e4 3cbe e3d5 a53f
00000010: 8d1d 0ebf 3e8a 9c3e 9f1d ccbe 1673 8a3d
00000020: 49aa 483e c4a0 4cbf c432 4cbf 7fe7 363e
00000030: c558 0fbe 7a84 e73e 4ce6 cdbf 59b4 58bf
00000040: cdbc 68bf 9f49 4abf 1ef6 27be fa49 c9bc
00000050: 2ad7 ad3f 6dec a13f b9d0 47bf 517d 14bf
00000060: 52e5 943f 0a32 38c0 63f1 52bf 2f8d 023f
00000070: 3800 ebbe b3fc 353f 20c5 cf3d e81e d4be
00000080: 2bc6 aabe e4fe 1240 b7fe 003f bc78 d63f
00000090: 4b23 383e ad59 463f fb4e 1a3f 03f2 6ebf
000000a0: 3e2a 36be f60b 2dbf 9c9f 983e 5c04 62bf
000000b0: 7e27 b33f 8f9f c93e ce1e 0dc0 3733 583f
000000c0: 410d 51bf 6373 303f f6f4 05c0 b931 b0bf
000000d0: f1bc 9c3f da2c 94bf 155a b13f 07ad 013f
000000e0: 151c 08bd 9e15 31bf 3c92 233f 940b 3a3e
000000f0: fdc6 99bb 52f8 7e3f 6551 0cbe de08 0abe
0.82163936 -0.41333535 -0.18446453 1.2955898 -0.5551384 0.3057422 -0.3986635 0.06760232
0.19596209 -0.7993281 -0.7976496 0.17861746 -0.13998707 0.4521826 -1.6085906 -0.8465019
-0.9091309 -0.79018587 -0.1640248 -0.024571408 1.3581288 1.2650276 -0.7805286 -0.5800372
1.1632483 -2.8780541 -0.82399577 0.5099668 -0.45898604 0.71088713 0.101450205 -0.4142983
-0.33354315 2.2968073 0.50388664 1.6755595 0.17982213 0.77480584 0.60276765 -0.9333803
-0.17789552 -0.67596376 0.29809272 -0.882879 1.3996427 0.39379546 -2.2050052 0.8445315
-0.8166085 0.68926066 -2.0930762 -1.3765174 1.224516 -1.1576188 1.3855616 0.50654644
-0.033229906 -0.6917361 0.6389501 0.18168479 -0.0046929107 0.99597657 -0.13702925 -0.13479945

pos_embed f4 [1, 41, 64]
00000000: 1531 03bd a268 34bf 2ff9 403f afcb 0a3f
00000010: 3867 f1bd 3c5e 163f aa57 57be 32e8 f53e
00000020: 3914 d13f db22 4e3f 8aff 913f a36b 3d3f
00000030: 1032 f8bd 82f4 01be 9059 343f ff0b 553f
00000040: b75c 593f e2fb 883e aada 6f3e e01c 0b40
00000050: 10ef 81bf 591c ccbf a6fb 583e f18e ca3e
00000060: e310 34be 961d 4d3f c917 7e3e 3aa2 5f3f
00000070: 6cf3 acbf e1e6 ff3e 2b54 033f 06a8 8dbe
00000080: e7d9 06bf 4e39 483e c256 bd3e 3f64 81bf
00000090: e8f2 cbbf 35b7 5bbf dd64 b6be 8600 4a3f
000000a0: 3cfa 25be 2a81 7c3f efc4 b0bf 90da 6bbf
000000b0: 38b9 8fbf 05e4 893e b525 9ebf 1a3b b43d
000000c0: 7ffd a33f c8b7 e1bf f838 b43f 0ad6 f73d
000000d0: 95c5 9b3d 2553 273f 24e6 b6bd 06b2 96be
000000e0: 795b 92bf b500 2c3f 2a6f b93d 9649 473f
000000f0: 6ef4 a93e 36c2 743e 439a 87be 9d24 29bf
00000100: af40 513e 3246 2040 a847 c23f 950f e53c
00000110: 0d4f 3bbf 3177 52bf b7dc f1be 18c8 5ebf
00000120: 3d60 e93f 6618 c83f 9f87 e13d 6152 443e
00000130: 9a0c c7bf 0be6 cc3f 0043 be3f 8ee3 d6bf
00000140: 97f3 30bf 05bd 813f bdde eabf cb16 13bf
00000150: a1b5 7b3f 2ab1 463e fe19 5f3f 826c e5bf
00000160: 6b41 1240 2206 b5be 57f3 3f3d e1ee b3bf
00000170: 76dc 903e e7c1 c5bf d1de 16bf 5590 b7bf
00000180: cfb4 823f 50d5 05bf 0f9c 16bf dc8d 8d3e
00000190: 95ea c23f 97a7 4dbd 85b8 12bf 135f 94be
000001a0: e8e3 33be 3c78 633f 316a d13e 9ccd 36be
000001b0: b11a 823f 402c d43e 59bd 333f 114f bf3e
000001c0: fd08 81bf faed 38bf 861d e1be abc7 08bf
000001d0: e660 89c0 b0ca 2dc0 057e 083f 5a61 2f3f
000001e0: 9068 a8bf 35ad 49bf cd46 773e 6a21 a83f
000001f0: a26a c63e ef4f 84bf 2f04 77bf 59b5 763f
00000200: 47d0 d33e e627 da3f 8199 c8bd 0566 a33f
00000210: e00f 01bf e016 af3f 1fde a23e 340c ecbf
00000220: fa1c 05bf e276 1d3f 40c7 d0bf 5978 c63b
00000230: 7c1f 4ebf c7c9 293f d2cf 86bf a824 10bf
00000240: 5fad c03e 2be9 83be 2205 c53f 28a5 8cbf
00000250: ae47 c23e c23a cc3f 72f1 3abe d5de cc3d
00000260: e5b1 eb3e 8835 b0bf c635 bfbf bbaa 4bbf
00000270: f88a cfbe b46d b93e 487f 833f 7f00 173e
00000280: 4384 a6be 3701 3d3f 6fcd f63e 5c39 a73d
00000290: 24ab 333f bca0 6bbf 5102 3b3f cf4e ddbd
000002a0: 82da 9bbe 92a5 18ba 1425 a73e 1607 9d3d
000002b0: 6595 91bf 14c4 28be df46 2a3f c486 4b3f
000002c0: 858e 93bf c06b 73be a87e ca3f ae99 a0bf
000002d0: 197c fcbe de01 c43e a387 c4be e27a 823f
000002e0: 8d15 a0bd 13d6 07bf 76e8 4b3f f7d6 acbf
000002f0: 51cf 90bf 1668 92bf 1740 edbf 3463 65be
00000300: 46e9 f0be 1185 a03f 1e40 953d 8f3f 65bf
00000310: d40b b8be c383 94bd 1653 ac3f c897 0dbf
00000320: fdc5 383f a7a8 09bf 158d 413e 8a82 0440
00000330: 70df 2d3f 51ce 16be a2f5 af3f 0eb0 92bf
00000340: 83fa e1be a854 063f 0243 623f b5cf 6abe
00000350: b209 873f 314f 88bf d461 723f 328a 223f
00000360: 30db 703e dee9 373f 1215 ee3e 782d 773f
00000370: 8815 663f 8b85 d6be 8e8f fcbe bf17 93bf
00000380: c75d 94bf 0a20 ef3f 8ed0 0dc0 da6a 3abf
00000390: 829c 43bf 013a 5abe 29c4 9b3f 2619 cebd
000003a0: 0e12 463e 314f 2d3f 5bbd 023f 12a9 20bf
000003b0: 617e 263f 2360 49bd a3e3 eabe 7a72 14bf
000003c0: 8221 04be dec1 05bf c8fb e73e d3ed ff3c
000003d0: 2a98 0b3c 08f0 b93e ffea 78bf 4fa6 693f
000003e0: 1d41 f1be 1a13 27bf ee34 d23f 969d 923f
000003f0: c8fe 87be 8dad 4e3e 9434 583f d950 cf3e
-0.03202923 -0.70472157 0.75380224 0.54217046 -0.117872655 0.5873754 -0.21029535 0.48028713
1.6334296 0.80521935 1.1406109 0.73992366 -0.12118924 -0.12690929 0.7044916 0.8322143
0.84907097 0.2675467 0.23423257 2.1736374 -1.0151081 -1.5946151 0.21189746 0.3956218
-0.17584567 0.8012327 0.24813761 0.87356913 -1.3511786 0.49980834 0.51300305 -0.27667254
-0.5267624 0.1955311 0.36980253 -1.0108718 -1.5933504 -0.85826427 -0.35623828 0.7890705
-0.16208738 0.9863459 -1.3810099 -0.92130375 -1.1228399 0.26931778 -1.2355257 0.08800335
1.2811736 -1.763421 1.4079885 0.121013716 0.07606045 0.65361243 -0.089306146 -0.29432696
-1.1434165 0.6718858 0.09054406 0.7784666 0.33194298 0.2390221 -0.2648488 -0.6607149
0.20434831 2.5042844 1.5178118 0.027961532 -0.73167497 -0.8221312 -0.47238705 -0.8702407
1.8232495 1.5632446 0.11012196 0.1917205 -1.5550721 1.6007704 1.4864197 -1.6788194
-0.6912169 1.0135809 -1.8349224 -0.57456654 0.9832402 0.1940352 0.87149036 -1.7923739
2.2852428 -0.3535624 0.046862926 -1.4057275 0.28293198 -1.5449799 -0.5893374 -1.4340922
1.0211428 -0.52278614 -0.58831877 0.27647293 1.5227839 -0.050208654 -0.57312804 -0.28978786
-0.17567408 0.8885534 0.4090133 -0.17851871 1.0164396 0.4144001 0.70210797 0.3736501
-1.0080868 -0.72238123 -0.43967837 -0.5342967 -4.2930784 -2.715496 0.5331729 0.6850792
-1.315691 -0.7877992 0.24148102 1.3135197 0.3875323 -1.0336894 -0.9649076 0.96370465
0.4136984 1.7043426 -0.097949035 1.2765509 -0.5041485 1.3678856 0.3181009 -1.8441224
-0.5199734 0.61509526 -1.6310806 0.006056827 -0.8051679 0.6632351 -1.0532172 -0.56305933
0.37632272 -0.2576383 1.5392191 -1.0987902 0.37945312 1.5955431 -0.18256167 0.10003439
0.4603416 -1.3766336 -1.4938285 -0.7955739 -0.40535712 0.3621651 1.0273218 0.14746283
-0.32522783 0.7382998 0.48203608 0.08165237 0.70183015 -0.92042136 0.7305041 -0.10806047
-0.30440146 -0.0005823012 0.32645476 0.07667367 -1.1373717 -0.16481048 0.6651439 0.7950251
-1.1527869 -0.23771572 1.5819902 -1.2546899 -0.4931343 0.38282675 -0.38384733 1.0193751
-0.078166105 -0.53061026 0.7965158 -1.3503102 -1.1313268 -1.1438015 -1.8535184 -0.22401124
-0.47052974 1.2540609 0.0728762 -0.8955011 -0.35946524 -0.07251694 1.3462856 -0.55309725
0.72177106 -0.5377297 0.18901475 2.0704675 0.67919064 -0.14727141 1.3746836 -1.1459978
-0.44136438 0.52472925 0.88383496 -0.22930796 1.0549834 -1.0649167 0.94680524 0.6349212
0.23521113 0.7184123 0.4650045 0.96553755 0.89876604 -0.4189876 -0.49328274 -1.1491622
-1.1591119 1.8681653 -2.2158542 -0.7281929 -0.76410687 -0.21311189 1.2169238 -0.100633904
0.19342825 0.6769896 0.51070184 -0.6275798 0.6503659 -0.04916395 -0.45876798 -0.5798718
-0.12903407 -0.5224894 0.4530928 0.031241333 0.008520165 0.36315942 -0.97233576 0.9126939
-0.4711999 -0.6526352 1.6422403 1.1454341 -0.2656157 0.20183392 0.8445523 0.4049137

QNN.p_rotation f4 [16, 12]
00000000: 68d2 2640 c8d3 4240 2aa8 993f e328 4240
00000010: 681c be3f a5c8 f43f 07ea 6c3f 7a2f 2840
00000020: fa04 2f40 5797 673f 57f5 3640 ce5e e63f
00000030: aca2 3840 af90 c33f e0a4 0f40 0bd0 a13f
00000040: 605d 3240 6b4c c03f c38d 4f3f 3eb8 f73f
00000050: cad7 273f f923 c03f c2b0 2c3f 0aa9 3740
00000060: c27e be3e 3d86 453f 0f80 c13f 38ab 663f
00000070: d03a e13f 9249 d9be 2b8c 4b40 1ea5 983e
00000080: 66f5 3f40 7ecd 1540 0581 7f3f 0f1b 2840
00000090: 9958 d13f f8e0 3e40 527f de3f cd62 843f
000000a0: 63b5 d93f a16f 9d3f d251 0740 2757 4240
000000b0: bc35 2640 bd38 233f c606 2c40 1cc4 0740
000000c0: 945a 0540 61f9 1d3f 2d2a aebd 3ca0 da3f
000000d0: c7a5 cd3e c9af 5840 98cf 0940 e8fc 1140
000000e0: dd9d f53f e45e c13f 0e4d 4440 25df 9d3e
000000f0: 159e da3f de6c c53e fe8e fc3f 369d aa3f
00000100: 93d1 d03f 8516 903f 7aeb 4940 18d1 6b3f
00000110: 2697 073f 7a5e fa3e ee95 4c40 bdee 1140
00000120: 2185 4740 9f55 013f 873b b03e 6801 1e3f
00000130: 36fe 0e3f fd75 0740 262a 0340 01ee 3e40
00000140: 258b 453f 654f 113e 9f6c 1340 9623 083f
00000150: 1c87 2640 63ed 463e 1d20 fe3f d85b 033f
00000160: 44cc 6b3f a9f4 0a40 f61a f63f 252a 013f
00000170: ef33 2140 1aca 3940 1e9b e73e 3429 6c3f
00000180: db7f 3c40 10a3 773f bcbd c43f cb97 68be
00000190: 05b9 fe3e 3b67 fa3f 160a 7a3f c0ae f83d
000001a0: 3e19 db3f 3d90 123f 64d6 103d ccb2 d63e
000001b0: cfe1 243e 02f1 323f 296d 3f40 08c3 f63f
000001c0: d3f5 0840 a6fd 8b3d ce79 3a3f 906f 613f
000001d0: aa28 e23f 6102 b03e 2108 503f c7c7 db3e
000001e0: c1d4 c63f 7f74 813f f405 b43f 1e3f 6d3c
000001f0: eb8b 823f 5766 683f 3146 9c3f 3a2c b93e
00000200: f7ee 3740 c17b ec3f 2a85 3e40 c809 b73f
00000210: 3bdf b33e 4cdb 3240 d5f8 be3f 3293 683f
00000220: ef8f 9d3e 32d1 5c3f a554 0940 6a7c 873f
00000230: 44d4 1240 fc0b b63e 16e9 3740 75b1 5e3d
00000240: 6b70 bf3f 6c42 c93f 0cd2 4240 ed27 6140
00000250: 1e3d 4440 252c d73d 2f54 fb3f 5cfe 703f
00000260: 9bbd b93f a4b1 4f3e 2c06 4040 6250 9b3f
00000270: fb25 2a40 d526 1140 aad4 1740 2c0c c73f
00000280: 79f0 2440 0cc0 f73f 6d1f 1040 6ad4 c83e
00000290: 21e0 0f40 dee6 7d3f 5ed9 fb3e fd4e 3e40
000002a0: b648 db3f 14c5 2b3f 41b0 203f eb27 c63f
000002b0: f2e2 1a40 f98a 8f3f 7e13 ff3e 4719 c23e
000002c0: 33b9 af3e 8acc 0440 c7c6 1b40 d643 d33c
000002d0: 536b e23f cdfb 1140 641d d73f f851 923f
000002e0: e677 2640 9b17 1a40 ecc8 1140 4c19 ad3f
000002f0: a8a1 bc3f ff6a 0040 5dda 8c3f 345e 6a3f
2.6065922 3.044176 1.2004445 3.0337455 1.4852419 1.9123732 0.925446 2.6278977
2.7346787 0.904653 2.8587244 1.7997682 2.8849287 1.5278529 2.2444382 1.2641615
2.7869492 1.5023321 0.81075686 1.9353101 0.6556364 1.5010978 0.6745721 2.8696923
0.37206084 0.77157956 1.5117205 0.9010501 1.7596073 -0.42438942 3.1804302 0.29813474
2.999353 2.3406672 0.99806243 2.6266515 1.6355163 2.982481 1.7382605 1.0342652
1.700848 1.2299691 2.114369 3.0365694 2.5970297 0.6375845 2.6879134 2.1213446
2.0836535 0.61708647 -0.08504138 1.708015 0.4016554 3.385729 2.1532955 2.2810612
1.9188801 1.5107083 3.067203 0.30834308 1.7079493 0.38559622 1.9731138 1.3329227
1.6313957 1.1256872 3.1549973 0.92115927 0.5296501 0.48900205 3.196651 2.2801964
3.1175005 0.5052127 0.34420416 0.61720896 0.55856645 2.1165764 2.0494475 2.9832766
0.7716544 0.14190443 2.3035047 0.531793 2.6019964 0.19426493 1.985355 0.5131202
0.9210856 2.1711829 1.9226978 0.5045493 2.5187948 2.9029603 0.45235533 0.9225037
2.9453037 0.9673319 1.5370402 -0.22714154 0.49750534 1.9562753 0.9767164 0.12142706
1.7117078 0.5725134 0.03536071 0.41933286 0.16101764 0.69899 2.9910376 1.9278269
2.140004 0.06835489 0.7284211 0.88060856 1.766866 0.34376815 0.81262404 0.42925856
1.5533677 1.0113677 1.4064317 0.01448038 1.019895 0.9078116 1.2208921 0.36166555
2.8739603 1.8475267 2.9768777 1.429986 0.3513125 2.7946348 1.4919688 0.908496
0.30773875 0.86256707 2.1457913 1.0584843 2.2942057 0.35556018 2.8736014 0.054368455
1.4956182 1.5723395 3.0440702 3.5180619 3.0662303 0.10506467 1.9635066 0.9413812
1.4510988 0.20282608 3.0003767 1.2133906 2.6585681 2.267995 2.372355 1.555059
2.5771773 1.9355483 2.251918 0.3922456 2.2480547 0.991804 0.49189276 2.973571
1.7131565 0.6709759 0.6276894 1.5480932 2.4201016 1.1214286 0.4981956 0.3790991
0.34320983 2.074984 2.4340074 0.025789183 1.7689003 2.2809937 1.6805844 1.1431265
2.601068 2.4076908 2.2778883 1.3523345 1.4736834 2.0065305 1.1004139 0.9154999

QNN.p_ising f4 [16, 4]
00000000: 64a9 7f3d c390 d53c be7f 25bd 781c cb3e
00000010: 6cc6 0abd df25 c4bc 0f4d e8bb e8ea 1d3d
00000020: 84f1 71bc 35ad 843d 592f 2b3e ecc5 8abd
00000030: 0611 a83d 100b b8bd 52ca fbbc 49dd 13be
00000040: e390 503e d2a9 283e ef2b 2d3e 276f d03e
00000050: 8884 e8bd 66f2 a63e 918a a1be d641 63be
00000060: 3251 993e 0228 753d 9ca1 76be 82db ba3d
00000070: e402 fe3d 7574 a0be 91ba fb3a ae07 c73b
00000080: 2e52 80bc 1669 cdbe d362 99be 5d65 00bf
00000090: 9bdd ca3d f5b1 3e3e 204f 23be a8b5 ca3d
000000a0: b16c d13e 5c43 29bd bb75 7e3e 9910 44ba
000000b0: 606c a9bd 5d46 ae3d db29 933d 964a 7dbb
000000c0: abfe 493a 2bf9 f4bd 38a3 523b 8e78 2e3d
000000d0: ec61 c4be a49d a83e 5862 3b3e 7d92 383e
000000e0: a669 2b3d d6dd b2be 174a a8be 414f 31be
000000f0: 3804 a43d 1af3 413e 4f09 04bd 03a7 1d3e
0.062417403 0.026070004 -0.040405028 0.39670157 -0.033880636 -0.02394384 -0.007089264 0.038554102
-0.0147670545 0.06478349 0.1671728 -0.06776032 0.08206372 -0.08986485 -0.030736122 -0.14439882
0.2036777 0.16471031 0.1691129 0.40709803 -0.11353403 0.3260681 -0.3155103 -0.22193083
0.2994476 0.059852608 -0.24085087 0.09123899 0.12402895 -0.3133885 0.0019205381 0.0060739135
-0.015664186 -0.40119237 -0.2995821 -0.5015467 0.09905549 0.18622573 -0.15948153 0.098979294
0.40903237 -0.041324005 0.24849598 -0.000747928 -0.08272624 0.085095145 0.07185718 -0.0038649193
0.000770549 -0.119615875 0.0032140743 0.04259544 -0.38355958 0.3293277 0.18299234 0.18024631
0.0418488 -0.34934872 -0.32869026 -0.17315389 0.08008617 0.18940392 -0.03223544 0.15395741

QNN.p_entangle f4 [16, 12]
00000000: 440f 2940 2212 3e40 27a8 bc3f 7e66 9c3f
00000010: f54f d63f f522 a73f f259 f33f d949 1840
00000020: 62f0 f33c 99dc 0f3f 1a36 3940 fb85 ea3f
00000030: d5fa 953f 73cf 2d3f 6de4 053f c22c b83e
00000040: d902 8c3f 1f2b f03f 6dd6 2b40 67f7 2740
00000050: 4b4e 01bc cea6 883f ed93 a93f 3100 5d40
00000060: ac03 1040 981f 9d3f 24b4 0740 dbe2 973e
00000070: 5467 153f 8d15 2c40 61c6 353f 3473 883f
00000080: 8d6c 56bd a91a 3040 87aa 3040 561b 1040
00000090: 108d 1a3f 145e 3f3d 3d3e b13e bab6 4a40
000000a0: 917e 1740 6f48 3e40 651f 1840 4e3b 1440
000000b0: 3fe3 803f 3639 283f 86a4 673e 7278 513d
000000c0: 778e 1d40 0482 253f 0de9 aa3f 1b6a 493f
000000d0: 94d1 793f e01f aa3e e6ca 203f 9a57 1240
000000e0: 675a 823f 4f59 2a40 8f99 883f a1ad a23e
000000f0: 55ec 913f 586f 073f dffe bd3f d5b9 b7be
00000100: 1fc3 1040 4251 413f dab8 2440 6360 1f40
00000110: b933 0b40 6606 93be 01e4 2c40 02f2 053f
00000120: 3d8d 0740 6cf8 3d40 d6ea b43f 9f51 dc3f
00000130: c66e 9c3f 3901 b83e 3810 1840 db89 6dbe
00000140: 2168 2e40 068c 3840 3f78 4340 8b72 873f
00000150: 302c 013e 5d9f 0440 2ea2 1d40 8adb 68be
00000160: b5dd 943f 4605 333f 1ffc af3f 4922 993f
00000170: 8258 9d3f 8193 693f eeb6 9e3d 8179 4440
00000180: 5964 3640 7e5f 9a3f c960 553f 6bcd 753f
00000190: 4d9a 333e cf74 183b f852 1f40 24f7 6d3f
000001a0: 57ac 1b3f 6fda e13f 380c 863f fb77 843f
000001b0: 7288 d53f e87a a43f 8a97 863f ed73 6a3f
000001c0: 8cb2 a33e 2f4a 3d40 a4c9 5c3f 8419 0440
000001d0: b5f8 8b3f 18e6 e03f 8f2c 4240 c355 2740
000001e0: bf1d a13c 9a60 1b40 4186 3a40 335d f53f
000001f0: 7fd8 2140 1fbd 4640 0599 af3f c2c1 e83f
00000200: bfe3 473e 730d 943f ad0b 2f40 e05d 4240
00000210: 76ec 1e3f ccc9 fa3e 0c44 7f3e 26fa ca3c
00000220: d9e3 c63e ce10 ac3f 8952 2740 575e dc3f
00000230: 073b cf3e ee8f 643e cba7 1640 4459 053f
00000240: 882c bb3f 83fe 1440 1bac 823f 2171 dc3f
00000250: 6642 c53f 0a83 7f3f bf90 8d3f 8db2 2d3e
00000260: 4b51 193f e6d9 473f 8fa4 4540 17b2 543f
00000270: 93e4 243f 49f0 1140 1a8f e83f 0c2f 2740
00000280: 5f12 5040 489d 0740 9ff1 843e e0a0 3540
00000290: d6e5 1740 3e9f dc3f 9014 253f 8f38 4d40
000002a0: f5b5 463f 9abb 563f 06e9 123e 8d01 ce3f
000002b0: 9dca 2840 8380 b83f f352 da3f cacc babd
000002c0: 003d 823e af83 b23f e445 4040 f952 3140
000002d0: a978 3f3f d051 9c3f 763e dc3e 5332 753f
000002e0: 9fef 0540 2b4e 1f40 11ca 3840 f662 a33c
000002f0: 3644 3440 fa12 1b3f 5a45 0a40 ce0a 3540
2.6415567 2.9698567 1.4738816 1.2218778 1.6743151 1.3057543 1.9011824 2.3795073
0.02977771 0.5619598 2.893927 1.8322138 1.1717173 0.6789467 0.52301675 0.35971648
1.0938369 1.876316 2.6849625 2.6244752 -0.007892202 1.0675905 1.3248268 3.4531367
2.250224 1.2275267 2.12037 0.29665264 0.5836079 2.6888154 0.7100583 1.0660157
-0.052349616 2.7516272 2.7604082 2.2516685 0.60371494 0.04672058 0.34617797 3.1674027
2.3671 2.973171 2.3769162 2.3161197 1.006935 0.65712297 0.22621354 0.051140256
2.4618204 0.64651513 1.3352371 0.7867753 0.97585416 0.33227444 0.628096 2.2865968
1.0183839 2.661701 1.0671862 0.31773093 1.1400248 0.5290427 1.4843405 -0.35883966
2.2619092 0.75514615 2.5737824 2.490258 2.175032 -0.2871582 2.7014163 0.523224
2.1179955 2.9682875 1.4134166 1.7212409 1.2221305 0.35938433 2.37599 -0.23197119
2.7251055 2.8835464 3.0542142 1.0581831 0.12614512 2.0722268 2.4630237 -0.22739998
1.163016 0.6992992 1.3748816 1.1963588 1.2292635 0.912407 0.07749735 3.069916
2.8498747 1.2060392 0.8335081 0.9601657 0.1753933 0.0023262983 2.489439 0.9295523
0.60809845 1.7644786 1.0472479 1.0349115 1.6682265 1.2850008 1.0514996 0.9158314
0.31972158 2.9576528 0.8624518 2.0640574 1.0935274 1.7570219 3.0339696 2.6146095
0.019667504 2.427771 2.9144442 1.9169067 2.5288389 3.105293 1.3718573 1.818413
0.19520472 1.1566604 2.7350876 3.0369797 0.6207956 0.48982084 0.24928302 0.024777483
0.3884571 1.3442628 2.6144125 1.721629 0.40474722 0.2232053 2.3539913 0.52089334
1.4622965 2.3280342 1.0208772 1.7222024 1.5410888 0.99809325 1.1059798 0.16962643
0.5988967 0.7806686 3.0881689 0.83084244 0.64411277 2.2802908 1.8168671 2.6122465
3.2511213 2.1189747 0.25965592 2.837944 2.373403 1.7236097 0.644845 3.206577
0.77621394 0.8388001 0.14346704 1.6094223 2.6373665 1.4414219 1.7056564 -0.09121092
0.25437164 1.3946437 3.0042658 2.7706892 0.7479349 1.2212467 0.43016404 0.95779914
2.0927503 2.489146 2.8873332 0.01994465 2.8166633 0.6057583 2.160483 2.8287845

patch_emdedding.proj.weight f4 [64, 1, 2, 2]
00000000: b164 1cc0 048e 42c0 c324 ecbf c23c a3c0
00000010: 59f4 b9bf 9e9c 4fc0 2798 1bbf d90a 4ec0
00000020: 445b bc3f 62e9 c33f 2ce6 103f ab55 af3f
00000030: 7f8d d6bf 5302 e0be d031 0ebe ec9c 95be
00000040: 0cbc 2940 8265 1840 58f6 f63f 90fe 1240
00000050: c245 71bf d3f1 2ec0 fe78 7abf 6dcd 2ac0
00000060: 767a 29c0 7871 fdbf f29f 3dbf e1ce 79bf
00000070: 3080 c73f f5b9 453f e143 443f 807d 0dbd
00000080: b0c1 76bf 63f6 87bf d9d8 5fbf d944 f2bf
00000090: 831e f1bf 86d6 02c0 65a6 79bf c74d 39bf
000000a0: ed23 98be e2dc 5d3e 986b a8be 4a3c 82bd
000000b0: 7995 24bf 2b44 0cbe 09a4 bfbe df22 b9bf
000000c0: ecf0 983f 276d 2640 b744 ed3d 86be 9640
000000d0: ff23 f53d 1d20 a03e c209 dc3e e929 443e
000000e0: 98dc cf3f 7f25 4f40 7a60 053e 7839 5940
000000f0: dcfa e83f c42d 0740 3b6e bf3e 105e 6140
00000100: 8fc8 4bbf 3823 3bc0 ee9b f53d 7183 82c0
00000110: 1cc9 64c0 c7e5 dcbf 3e00 53bf 8c15 a5bf
00000120: 011a f63f e922 f93f 2d83 093f 999e dc3e
00000130: 6ca8 d53d d497 a23f 65b2 ee3d e439 cc3f
00000140: 7fc5 e5bf edf1 3ac0 e4f1 9abf 1a74 69c0
00000150: 9525 4440 8266 0a40 8b6f a23f bec8 963f
00000160: 191a 0d40 e43c 1840 688a 5e3f 7b89 4840
00000170: 4a26 f3bf 75bb 68c0 1856 0ebf 76d0 84c0
00000180: bce9 3040 7ca2 af3f 9c12 143e 16d5 ca3f
00000190: 6179 e6bf 2cba 37c0 22ce 2ebe a70b 52c0
000001a0: e479 3f40 6b7c 2a40 e420 8d3f e4c0 cd3f
000001b0: baa7 413f f63b 2b3f fd6b ab3e 202b 7c3f
000001c0: baf4 bf3f 4ddb 0340 0671 e43d e2fe c13f
000001d0: d302 1a40 d405 d93f 313d 6a3f b52a b23f
000001e0: 619c b6bf d6d0 e9bf f6cb 3fbf 229a 41c0
000001f0: e813 01c0 f151 02c0 a9bd d6be 3618 03c0
00000200: 99a0 b3bf 0000 03c0 9da6 52bf 0a8e acbf
00000210: d03b 2040 4f5f 043f ecc6 7f3f bc08 383e
00000220: 39c5 6b3e dbdd c03f 4124 753e 4581 0040
00000230: d6a8 1d3f 4f2c c2bf eac9 3b3e e62b 84bf
00000240: ee0a 693f 367e df3f 0795 573f d9b2 853f
00000250: fbc6 1540 7c33 7b40 771f 803f 4bc6 3c40
00000260: af84 4cc0 5ea7 84bf 0032 a7bf b843 0abe
00000270: 41e3 dcbf 35fd 09c0 af63 3fbf 6491 3ac0
00000280: 7ce0 5d40 2db2 1640 dd21 523f fd1f 0a40
00000290: f725 3540 56fa fb3f 0c37 a33e 6fe3 eb3f
000002a0: 41c1 33c0 6f75 91bf 87db 68bf ccbd cbbf
000002b0: d2ff 0940 9a58 2a40 3bbb 4b3f 5c83 2240
000002c0: 1e19 1340 4d0a 5240 7352 633f d9db 3840
000002d0: 6af3 78c0 d0e3 6dc0 8e6d 93bf 6714 16c0
000002e0: 800b 36c0 fb2d 15c0 3d36 5abf b2f2 21c0
000002f0: 3915 d2bf fac5 a0bf d9d1 05be 3998 0bc0
00000300: 4f35 4cbf a991 7ebf f572 1abf 3521 f3bf
00000310: 3d50 b33f afe3 c23e 7d2c 913e c6be d03f
00000320: 10a7 3040 23f0 0f40 a144 823e 798f f93f
00000330: e852 3740 c7dd 3c40 9ed3 753f e7e3 2040
00000340: c0a0 5cc0 23ff 48c0 a1bc 47bf 379f 45c0
00000350: 45b8 2c40 1db7 3040 7135 403f 2856 8b40
00000360: 94dd 5fc0 51e9 f0bf c329 e1bf 77c5 dcbf
00000370: 6c46 0fc0 306c 2dc0 cb16 83bf e148 f4bf
00000380: d903 0b40 1d3d ba3f 8a7c 493f a6c0 203e
00000390: f1f8 843e 5894 0640 dd75 2b3f e362 0340
000003a0: 6213 11c0 bba1 29c0 a72b 30bf 94cf 9bbf
000003b0: 6fb6 54c0 8a5b 52c0 e14d 85bf 992c 4dc0
000003c0: 11da f63f deab 8e3f 2904 313f e750 a73f
000003d0: d5ae fbbf a46a 1fbf b5f4 6cbf d2b2 25bf
000003e0: a682 f7bf 7e69 f9bf 8484 f1be f63c 95bf
000003f0: 3419 04c0 d592 80bf ec3d d3be 36d7 34bf
-2.4436457 -3.039918 -1.8448719 -5.1011667 -1.4527694 -3.2439342 -0.6077904 -3.219412
1.4715352 1.5305598 0.56601214 1.3698019 -1.6761931 -0.43751773 -0.1388619 -0.29221284
2.6521025 2.3811955 1.9293928 2.2967873 -0.94247067 -2.7335098 -0.9784087 -2.6687882
-2.6480994 -1.9800253 -0.7407218 -0.975813 1.5585995 0.7723687 0.76666075 -0.034543514
-0.96389294 -1.0622066 -0.8744026 -1.8927261 -1.8837436 -2.0443435 -0.9751952 -0.72384304
-0.2971491 0.21666291 -0.32894588 -0.063591555 -0.6429058 -0.13697879 -0.37429836 -1.4463767
1.1948524 2.6004121 0.11585372 4.7107573 0.11969756 0.312745 0.42976195 0.19156612
1.6239195 3.2366636 0.13025084 3.3941326 1.8201556 2.1121683 0.37388787 3.5213661
-0.79602903 -2.9240246 0.11992632 -4.078545 -3.5747747 -1.7257622 -0.82422245 -1.28972
1.9226686 1.9463779 0.53715783 0.4308975 0.104325145 1.2702584 0.1165512 1.5955167
-1.7950896 -2.921016 -1.2105069 -3.6477113 3.0647938 2.1625066 1.269029 1.1780012
2.2047179 2.3787165 0.8692994 3.1333911 -1.899606 -3.6364415 -0.5560012 -4.150447
2.764266 1.3721461 0.14460224 1.5846279 -1.8005792 -2.870738 -0.17070821 -3.2819612
2.9918146 2.6638439 1.1025662 1.607449 0.75646555 0.6688837 0.33480826 0.98503304
1.499656 2.06026 0.1115437 1.5155909 2.4064224 1.6954904 0.9149962 1.3919283
-1.4266473 -1.8266857 -0.74920595 -3.0250325 -2.01684 -2.0362513 -0.41941574 -2.0483527
-1.4033386 -2.046875 -0.8228548 -1.3480847 2.5036507 0.5170793 0.99912906 0.17972082
0.23024453 1.5067705 0.23939611 2.00789 0.6158575 -1.5169772 0.18338743 -1.0325897
0.910323 1.7460392 0.8421177 1.0445205 2.3402698 3.9250174 1.0009602 2.9496028
-3.1955984 -1.0363576 -1.3062134 -0.13502395 -1.7256852 -2.1560795 -0.7476148 -2.915124
3.4668264 2.354625 0.8208292 2.1582024 2.8304422 1.9685771 0.31877935 1.8428782
-2.8086703 -1.1363963 -0.9095997 -1.5917296 2.156239 2.6616578 0.79582566 2.5392675
2.298408 3.2818787 0.8879768 2.8884184 -3.8898568 -3.7170296 -1.1517808 -2.3449953
-2.844452 -2.3309314 -0.8523901 -2.530438 -1.6412727 -1.2560418 -0.13068332 -2.181166
-0.7976884 -0.9944101 -0.6033166 -1.8994509 1.4008862 0.38064334 0.28354254 1.630822
2.7601967 2.2490318 0.25442985 1.9496909 2.8644352 2.9510362 0.9602603 2.51391
-3.4473114 -3.1405723 -0.780222 -3.0878427 2.698747 2.7611763 0.75081545 4.354267
-3.497899 -1.8821203 -1.759087 -1.7247761 -2.2386732 -2.7097282 -1.0241331 -1.9084741
2.1721098 1.45499 0.78705657 0.1569849 0.25971177 2.1028042 0.6697672 2.0529106
-2.266808 -2.6504962 -0.6881661 -1.2172723 -3.3236349 -3.286837 -1.0414392 -3.205847
1.9285299 1.11462 0.6914697 1.3071564 -1.966273 -0.62272096 -0.92560893 -0.64725983
-1.9336746 -1.9485319 -0.47171414 -1.1659229 -2.0640383 -1.004481 -0.4125818 -0.70640886

patch_emdedding.proj.bias f4 [64]
00000000: 21c6 013e 560a aebe d49f f03e 3cec ed3e
00000010: 2092 40be fba3 e6bd c0ed 973e 72a6 25bd
00000020: 0645 433e e394 b9bd 5988 db3e 6d4a 10bd
00000030: beb2 733e 0a61 c03d c5b6 713d dcff a63e
00000040: 452b 0d3d ebc1 8dbe 8140 65bd e511 dc3e
00000050: b374 dbbe 915f 513c 097d c0be 2e4c 713e
00000060: a438 7e3d 57a3 c43d 35bc 803e 9dc3 583e
00000070: 7314 7a3d b0a4 f6be 3d6a ba3b 6d8d 303e
00000080: 7782 ed3e f093 803e 90db 1cbd 73fe 273e
00000090: a9dc 7ebe 63fe 48be dea0 d2be 6a21 9d3e
000000a0: f53d 123e 6a0f 29bd 4ea5 58be 1c2c a43d
000000b0: 452c 4cbe edba be3e b5d3 d2be 0489 a5bc
000000c0: be0a 7cbe 61a9 3cbe 97ff 203e fb57 6c3e
000000d0: 8ff4 d33d 0b10 ea3e f546 7f3d 5d94 9f3e
000000e0: c6b2 bc3d b597 d93e e4be abbe c0a5 013f
000000f0: 0e15 3e3e 214b f1bc 0a7d d1bd 1c2e acbe
0.12673236 -0.3399226 0.4699694 0.46469295 -0.18805742 -0.112617455 0.29673576 -0.040441938
0.19069299 -0.09061601 0.42877463 -0.035227228 0.23798653 0.09393509 0.059012193 0.3261708
0.034465093 -0.2768701 -0.05596972 0.42982402 -0.42862472 0.012779132 -0.37595394 0.23564216
0.062065735 0.09601467 0.2514359 0.2116837 0.06105466 -0.48172522 0.005688934 0.1724145
0.463886 0.25112867 -0.03829533 0.16405658 -0.24888863 -0.19628291 -0.41138357 0.30689555
0.14281447 -0.041274466 -0.21156809 0.08016226 -0.19938762 0.37251988 -0.41177145 -0.020206936
-0.24613473 -0.18423988 0.157225 0.23080437 0.1034938 0.45715365 0.06232353 0.3116788
0.09213786 0.42498556 -0.33544075 0.5064354 0.18562719 -0.02945477 -0.102289274 -0.3362893

attention.q_proj.weight f4 [64, 64]
00000000: 291b 69be 0705 d2bd f215 5e3e 0f90 c93d
00000010: 6f15 ba3d 3ecc e03d 8651 d8be 657c c23e
00000020: 2e6f 793d c511 f43d 31fd 553e d33f 573d
00000030: 95f3 03bd 911a c33e 35ec afbc 3d6a c9bd
00000040: cbda 013f bf95 813f 9b41 fb3e 0ffd c8bd
00000050: cc6e 1e3e fd94 edbe 68be ff3e 1f8e 9fbd
00000060: 86d2 213d 3dd9 44be 71f9 903d 64b0 d1bd
00000070: f938 89bd 4dac 923e 6f22 043f c646 4cbd
00000080: d3c0 3cbf adf8 debc 63b6 c33d 4ceb ce3d
00000090: 1247 ac3d 2931 b3be 4ee5 c93e 5c81 a43e
000000a0: 868d 01bd d220 2f3c 8692 a73d fe20 d7bc
000000b0: 4eff dabd ab5d 5c3e e509 19bd e592 9b3e
000000c0: 9b79 97bd 3ca2 fbbe e9be c73d ea60 4bbe
000000d0: d6ea 433e e067 98bd 1a78 06bd 13b5 503f
000000e0: 1239 43be d578 c2bd 60a9 313e 2186 153d
000000f0: c05d 833e e02f 353e 68a3 a9be ceef 00be
00000100: bf53 2cbe 83a0 173d f692 033e cd69 ebbc
00000110: 5094 96bd 5df9 dabc 91c8 b0be 4243 1bbe
00000120: dc8c 39be fc19 7c3b 78ac f2bc 28d2 31bd
00000130: d215 353e 2845 06bf 024d 443f 502b fb3d
00000140: c150 a3be 46a7 f8be 3dbf 683e 011e 1c3d
00000150: 6ed8 3ebd 1ed1 273e 25ce 5ebf ac32 553e
00000160: 8b96 00bd 4043 a2bf f5e4 8d3e 4af6 31be
00000170: 0d97 293d 69e9 e2bd 9033 06bf 8501 6ebe
00000180: 4157 30be b448 843d fc89 96bd b6e3 c6bd
00000190: d301 363d 9b96 b1be ef49 073e ac19 c7bd
000001a0: 6e6a e53e 35ee ebbd 326c bf3d 0f6e 623e
000001b0: 6e60 8e3e befc ad3e b872 4d3e dee1 903d
000001c0: 2808 7ebd 48f7 bd3d e29b 1dbe 54c5 5b3e
000001d0: d7bd 333e 35ab 943d 3d82 9a3e ec99 fdbe
000001e0: 94ce ebbb 010c 6bbd 1660 923e fd0d 52be
000001f0: 6463 823f 9bb6 1a3d e926 aebd 16e8 9abd
00000200: 9de7 d9bb dede aebe 8524 7dbc 453b 393e
00000210: 3632 12bc ddaf fb3d 10ae 9c3d 1303 96bd
00000220: edbd 563e 3fcc 163c a045 ffbc 6d53 8dbd
00000230: 73f5 573c b74b 5dbf 8be7 22be 11c1 433d
00000240: dd64 c93e fa74 9b3c 6083 69be fc09 87bb
00000250: 744e 98be 83ab 66be a33b 32be 1e7a 9f3e
00000260: c5ce cf3e df25 0dbf d833 503f 3777 913e
00000270: d6ae 07be 4dcb 0abe bf94 f9bd ea22 b9be
00000280: b25c b4be 3cfb 933e 9dea 07be 9271 563b
00000290: 8f17 d2bd 3bcb 80be 576e 923c 2e12 9f3e
000002a0: c706 aa3d bc5f 623e 7fff 53be cdfe 38be
000002b0: 79af bd3d bf0a 17bd 5311 90bd 66af a8bb
000002c0: c73b 4b3e a648 14be 0df8 c93d c74c ae3d
000002d0: b7fe f33d 7fd2 51bd ee2f 643e 31bb 07bf
000002e0: d2dc a0be 3fbb a7bd f7e4 d93c 4ba0 043e
000002f0: e678 573e 95cf 5bbd e6b5 93bd 2c4b 10bd
00000300: ba7b 1d3e c685 10bf 4349 563e 0dcd 883e
00000310: a4ae 61be db15 903e 5572 a9be 6e38 a23e
00000320: 6b24 b83e 5e18 9e3e 273e d73d 9966 323e
00000330: c76e 5d3d 6220 96bf 25bc 78be b546 1b3f
00000340: ad82 243f c5fe ebbe d723 1ebe fd46 563d
00000350: 3afd 4abf 6f52 d1be 185d 9fbe eb3d 30be
00000360: 5bda 30bd fee7 14bf 9f05 0d3f 66c7 9f3e
00000370: 0252 3ebe 6a85 873e e7c6 0a3d e085 1abf
00000380: 3557 22be 7d58 b13e fca7 5d3e a6ce f5bd
00000390: 8098 a1be 16e2 63bd 8995 81be 9401 343e
000003a0: 5cef dcbd d5b8 eb3e 57c3 89be ffdc 8cbe
000003b0: ac69 6cbe ed40 27be c103 afbe 305d 813e
000003c0: 6438 4d3e 0c53 24be 6c46 7f3e b38f c6be
000003d0: 44b5 db3d c922 80be 465b 063e 6b84 9cbf
000003e0: be5b 78be ce50 bf3e ee74 943c b61c 813e
000003f0: 0e05 353e 3bbf 1b3e c2e5 993e 1d3c 65be
-0.22764267 -0.10254865 0.21688059 0.0984193 0.090861194 0.10976456 -0.42249697 0.3798553
0.060897045 0.11917452 0.20897366 0.052551102 -0.03221472 0.38106206 -0.021474937 -0.098347165
0.50724477 1.0123824 0.4907349 -0.09813892 0.15471953 -0.46402732 0.49949956 -0.07790779
0.03950741 -0.19223495 0.07078827 -0.10238722 -0.0670032 0.2864708 0.5161504 -0.049872182
-0.73731726 -0.027218187 0.09556272 0.10103473 0.08411993 -0.34998444 0.39432758 0.32129943
-0.031629108 0.010688977 0.08182244 -0.02626085 -0.10693227 0.21520106 -0.03736295 0.3038551
-0.07396241 -0.49147213 0.0975321 -0.19861189 0.19132552 -0.074416876 -0.03282938 0.815263
-0.1906474 -0.09495703 0.17349768 0.03650487 0.25657463 0.17694044 -0.33132482 -0.12591478
-0.16828822 0.03701831 0.1284903 -0.028736973 -0.07352507 -0.026730234 -0.3452802 -0.15162376
-0.1812014 0.0038467636 -0.029623255 -0.04341331 0.17684105 -0.52449274 0.76680005 0.122641206
-0.31897548 -0.4856512 0.22729202 0.03811455 -0.046593122 0.16388366 -0.870333 0.20820111
-0.03139357 -1.2676773 0.27713743 -0.17379108 0.04140382 -0.11079676 -0.5242243 -0.23242767
-0.17220785 0.064591795 -0.07350537 -0.09711401 0.044435333 -0.34685215 0.13211797 -0.097216934
0.44807762 -0.11520044 0.093468085 0.22112297 0.27807945 0.3398189 0.20063293 0.07074331
-0.062019497 0.09275681 -0.15391496 0.21461993 0.17552887 0.07259218 0.3017749 -0.49531496
-0.007196257 -0.057384495 0.28588933 -0.20513149 1.0186582 0.037771802 -0.08503515 -0.07563798
-0.006649925 -0.3415441 -0.0154506015 0.18089016 -0.008923104 0.12289403 0.07650387 -0.07324805
0.20970888 0.0092039695 -0.03116113 -0.06900678 0.013181078 -0.86443657 -0.15908639 0.047791544
0.39334765 0.018976677 -0.22804022 -0.0041210633 -0.29747355 -0.22526364 -0.17405562 0.31147856
0.4058744 -0.5513591 0.8132911 0.28411266 -0.13250288 -0.13554116 -0.12186574 -0.3615945
-0.3522697 0.28902614 -0.13273092 0.0032721502 -0.102584 -0.25155053 0.01787488 0.31068558
0.08302074 0.22106832 -0.20702933 -0.18065949 0.092619844 -0.036875483 -0.07034554 -0.0051478622
0.19847022 -0.14480838 0.09861765 0.08510738 0.119138174 -0.051226135 0.22283909 -0.53020006
-0.31418473 -0.08190011 0.026598437 0.12951772 0.21042213 -0.053664763 -0.07212429 -0.03522794
0.15379229 -0.5645412 0.20926385 0.2671894 -0.22039276 0.28141674 -0.3309504 0.31683677
0.35965285 0.30877966 0.105099015 0.1742195 0.054060724 -1.1728632 -0.24290521 0.60654765
0.64261895 -0.4609281 -0.1544336 0.052313793 -0.79292643 -0.40883204 -0.31125712 -0.1721112
-0.04317699 -0.5816649 0.550867 0.31206816 -0.18585971 0.26468974 0.033881094 -0.6036053
-0.1585358 0.34637824 0.21646112 -0.12002306 -0.3156166 -0.055635534 -0.253094 0.17578727
-0.10787842 0.46039453 -0.26906845 -0.27512357 -0.23087186 -0.16333361 -0.34182552 0.2526641
0.20041043 -0.16047305 0.24929208 -0.3878151 0.10727933 -0.2502654 0.13120756 -1.2227911
-0.24253747 0.37366337 0.018122163 0.25217217 0.1767771 0.15209667 0.30058104 -0.22386213

attention.kv_proj.weight f4 [128, 64]
00000000: 75fa 2ebd a0bb 5c3e 923b 88be 1096 0a3f
00000010: 3195 053e b5cf 8cbd a2ec 123e 2bf3 543e
00000020: 48b1 333d 1bb1 3d3f a96b 0dbd 17ad acbe
00000030: 933d 9e3e 0be2 e83a d3bc 31bd 6a4b 143e
00000040: 1de2 4a3e 5210 86bc 1c29 a63d bd32 8a3b
00000050: e47d 7cbe 8f6b 733e af8b e23e 3b7a 023d
00000060: 4188 9bbe 00cd c4be 093a 84be b848 87bd
00000070: 97ef 40bd 3903 073e f532 663e 7112 59be
00000080: 86d4 e13d 2753 80be 1539 993e 377b 80be
00000090: fed2 173d 6823 cd3d 73df 923c dbaf bebd
000000a0: d415 2a3e 7737 5ebe fc06 e0bc cb13 b03b
000000b0: 70e1 fd3d 73f8 273e 90f5 3dbd fa0a 253c
000000c0: 63fb 87be cc12 1a3e 6f02 89bd 6a48 a23d
000000d0: 7832 3e3e 4e36 293d 035a 1f3d 9d40 b4be
000000e0: 3d8f ef3e 6662 99bd ba44 97be 7d0e 8dbd
000000f0: 44da c13d e55d 83bc 816d 223e d07c f73e
00000100: 8bff 553e 8d90 8bbd a514 2dbe 62a7 783e
00000110: 7e6c c7be 45c6 0e3e 7008 ec3e 7cf4 a9be
00000120: 74c1 063d c422 2dbe 0a0a e63d 256c d0bc
00000130: 6037 18be 085e c33e 6887 413d 2b69 2cbe
00000140: 7b37 8a3e 4847 0e3d c9d9 46bf 5961 cebd
00000150: cd43 1a3d f2cd a7be b656 ecbd 0a44 a33d
00000160: 4f1a cfbd ea49 0abc 38df 03bf 8ed6 eabd
00000170: 994a 03bf a498 04be e526 cabd ce60 c03e
00000180: 9f3a 91bd 15ee 9cbd f658 883d 2b3b 97be
00000190: e625 a5bc cbeb 35be 572b 2e3e 06b7 a03d
000001a0: 31ab fcbd 9837 98bd 3ffe c33e 50f9 93be
000001b0: f147 e43c dc04 733e a1e0 683e 06ce c93d
000001c0: c9b7 a53c 769c 823e 98db 8cbe 4be2 0dbf
000001d0: 450a 0cbd e3df 96be 40ca 313f f0c5 9abc
000001e0: c410 febe 257e 143d 2add e13e 8de6 7e3e
000001f0: 5191 c0bc 678c 813e d47c 26bd 74ee b23e
00000200: 1df9 8c3e 9bfe 2b3e 4cc9 3ebc 451e 26be
00000210: 62fc 99bb 2305 6f3e 0ba1 60be 2fc7 9e3d
00000220: d08f 893e 62a9 923d db03 08be 68c6 14be
00000230: 1192 edb9 1150 813e 7bc0 97bd 56d6 78bd
00000240: c53d d03e 5380 50be 64a2 ba3e 60b1 00bc
00000250: 9ac9 56bc fd32 db3e 6b2e 573d fae4 623e
00000260: 312a 3ebe cfc1 aa3d 2021 7abc 3cb7 babc
00000270: 5b0b 143e 842c fe3e 4bb6 a43e 9484 b5bd
00000280: 37bf 88bd b614 e33e 656c 9e3d 3041 40bd
00000290: 8ca8 f63d 9f96 7fbe 742a b7be 08c8 ce3c
000002a0: 43d5 053c 4efd fd3a c0a3 7dbe 3737 333e
000002b0: d38c babd 3f52 43be 8606 09bd eb99 8abd
000002c0: b196 91be e506 9c3e 9c64 14bd e9d0 603e
000002d0: 21f2 07be 8b34 473e 88b6 45be cf80 9fbe
000002e0: cc94 0c3f cc1a d43c ca9e 0c3d c2f6 33be
000002f0: d245 5a3e d884 f7be ed83 e2be f0b1 8b3d
00000300: b3ad 8d3e a6e2 963e b9c7 de3c 4252 fcbd
00000310: 010a e23a dcb8 433e 7ae3 80be d749 8d3e
00000320: da35 303e c513 80be 4c8c acbc eb33 db3c
00000330: 3f94 7a3d ce00 8cbc 4065 0ebe 4198 a6bc
00000340: 3436 9b3e 7de0 89be 1a0d 203f f0f6 b7bd
00000350: f8db 933d 7cc6 0e3f 1fdc 20be e186 f43d
00000360: abe1 0cbe 1abb 723d 6245 ba3d c10e db3d
00000370: 1422 983e 4f4a c13e e389 c33e 6a78 5abd
00000380: 78bf 2b3e c736 163f 71a2 7b3d bd19 63bc
00000390: 64a8 e5bc 6260 32bd c908 babe 9084 56bd
000003a0: ebe6 563e 0b4b ffbd 2f91 87be ccad 433e
000003b0: 6882 4dbe 0964 51be 0ff9 7abd 7742 89be
000003c0: c4b7 97be 0c67 c83e ef61 103e bd3a df3e
000003d0: e5cc 673d ed07 733e f10a 56be 430f 9c3d
000003e0: d623 573f 2e89 47be 819b 25be fc28 10bc
000003f0: d057 f23d 5b6a 0dbf c52e f3be bcb4 21be
-0.042719323 0.21555948 -0.2660795 0.5413523 0.13045193 -0.068755545 0.14348081 0.20795886
0.04387024 0.74098366 -0.0345265 -0.33725807 0.30906352 0.0017767561 -0.043392967 0.14481893
0.19812818 -0.016365204 0.0811331 0.0042174743 -0.24657398 0.23771499 0.44247195 0.03185485
-0.3037739 -0.38437653 -0.25825527 -0.06605667 -0.04710349 0.13184823 0.22480376 -0.21198441
0.11026864 -0.2506344 0.29926363 -0.25094005 0.037066452 0.10016519 0.017928815 -0.093108855
0.1660989 -0.21700846 -0.02734708 0.0053734533 0.123965144 0.1640337 -0.046376765 0.010073418
-0.2655898 0.15046233 -0.06689917 0.07923968 0.1857394 0.041311555 0.0389042 -0.35205546
0.4678897 -0.07489471 -0.29544622 -0.06887529 0.09465459 -0.016035983 0.15862085 0.48337412
0.20898263 -0.0681468 -0.16902407 0.24282601 -0.3894996 0.13942821 0.46100187 -0.3319434
0.032899335 -0.16907793 0.112323835 -0.025442192 -0.14864874 0.38157678 0.047248274 -0.16836993
0.26995453 0.034735948 -0.77676064 -0.10077161 0.037662316 -0.3277431 -0.11539976 0.07971962
-0.1011244 -0.008440474 -0.5151248 -0.11466704 -0.512857 -0.12948853 -0.098707 0.37573856
-0.07091259 -0.07662598 0.06657593 -0.2953733 -0.020159673 -0.17765729 0.1700872 0.07847409
-0.1233734 -0.07432479 0.38279912 -0.28901148 0.027866336 0.23732322 0.22741939 0.09853749
0.020229237 0.25509995 -0.27511287 -0.5542342 -0.03418948 -0.29467687 0.69449234 -0.018893212
-0.49622166 0.036253113 0.44114047 0.24892636 -0.023506792 0.2530243 -0.04064639 0.3494755
0.27533808 0.16796343 -0.011644673 -0.16222484 -0.004699276 0.23341803 -0.21936433 0.07752835
0.26867533 0.071612135 -0.1328272 -0.14528811 -0.0004531299 0.25256398 -0.074097596 -0.06075128
0.40672126 -0.20361452 0.3645202 -0.0078547895 -0.013109589 0.42812338 0.052534502 0.2215766
-0.18570782 0.08337747 -0.015266687 -0.022792451 0.14457457 0.49643338 0.32170328 -0.08863178
-0.06677096 0.4435174 0.07735518 -0.046937168 0.120438665 -0.24959801 -0.35774577 0.025241867
0.008168521 0.0019377859 -0.24769497 0.17501532 -0.09108891 -0.19074343 -0.033453487 -0.06767639
-0.2843528 0.3047401 -0.03622876 0.21954693 -0.13275959 0.19453637 -0.19307911 -0.3115296
0.54914546 0.025891684 0.03433112 -0.175746 0.21315697 -0.4834354 -0.44241276 0.06821048
0.27671584 0.29469794 0.027194845 -0.12320377 0.0017245413 0.19113487 -0.2517355 0.27595398
0.17208043 -0.25015083 -0.021062993 0.026758155 0.061176535 -0.017090227 -0.13905811 -0.020336272
0.3031479 -0.26929083 0.6251999 -0.089826465 0.0721969 0.55771613 -0.1570897 0.119397886
-0.1375796 0.059260465 0.09095265 0.106961735 0.297135 0.37752005 0.38191137 -0.053337492
0.16772258 0.58677334 0.061434213 -0.013861117 -0.028034396 -0.04354895 -0.36334828 -0.052372515
0.20986526 -0.12465485 -0.26477954 0.19109267 -0.20069277 -0.20448317 -0.061272677 -0.2680852
-0.2963239 0.3914112 0.14099859 0.435995 0.056591887 0.23733492 -0.20902611 0.076200984
0.84039056 -0.19485924 -0.16172601 -0.008798834 0.11833155 -0.5524041 -0.4749662 -0.15791601

attention.out_proj.weight f4 [64, 64]
00000000: 371e 71bc ae5b 503c b9de 473e 6cde 05be
00000010: 6f2e 6b3d a1dd 13bd f42b 8b3e 2b8b fcbc
00000020: 1be6 f83e 7ec5 16be b1b4 2ebe 1e11 bfbe
00000030: 28f0 8d3e 2138 b43e f408 63be 350d 03be
00000040: 47a2 333e 03b5 283d 7549 ad3d 0233 d13e
00000050: c45f c9be b112 813e 6db6 06bf 97ae cbbd
00000060: c8ed 1f3d 06f0 2e3e 8f84 f23d 508d 163d
00000070: 74d1 3cbe 912b 133c 0955 0ebe 6329 503e
00000080: b215 9c3d fe50 b83c 2abb c73b 683a 5e3e
00000090: e69f 1bbd c279 31bd 8b68 4d3c e5f6 8bbe
000000a0: b418 823c 2bd3 f6bd bfe4 e2bc fed1 3dbb
000000b0: d824 2c3e 9f10 db3a 46de 1e3e cb5e 443e
000000c0: 0adb 773c 2e1a 0d3d 9f44 92bc d375 053f
000000d0: b10c 173e f1b3 67be 7b11 33bd 1a7d adbc
000000e0: d743 863d 8f56 463d b686 8e3d c477 343e
000000f0: 1caa 4dbe 08fb 323e fc95 913e 0141 73be
00000100: d9b8 53bd f4ea 52bd 16f1 76bb d590 5c3e
00000110: 54c9 c33e a4c1 7b3c 6e37 923e 2d54 103e
00000120: 0cdf 30be 27e0 8b3d 2597 93bb 7390 463e
00000130: 5132 88bd 1ebe 78bd 7517 5cbc f664 bf3e
00000140: 00b7 b3bc 9a74 fabd 34cc 88be 8a32 443e
00000150: f77b 40be f504 7a3e 7922 8bbe e108 b5be
00000160: e873 f5bd 283a f2bd f798 2abd f3b3 cb3d
00000170: 2286 17bd 7cc9 63bd 6f7b c8bd b3d4 8a3d
00000180: 3522 a93d 2e82 123d 80a7 8cbd 8645 093e
00000190: a602 2fbd 9fab 823d 68c0 b13c 4c36 d2be
000001a0: 2f77 283e 1fdf 6cbd e8b7 11be c2a8 42be
000001b0: 3e6b 2cbd dcdc c0bd 5c98 3abd eb13 d83d
000001c0: e298 a7bd 95d3 45bd 3c7a 6dbd 0782 05be
000001d0: 1141 843d 5412 243d 63ed 29bd 4726 e9bd
000001e0: 1b82 033f b32f df3e c63f be3d d003 67be
000001f0: 1443 ccbe 0195 13bc f046 a03e 8aee 35be
00000200: 18fb e43c 5149 6a3e 9e84 c03d 760d 42be
00000210: af32 c7be e233 7d3d 47de 0fbe 6543 59be
00000220: 6146 4f3e 4fce debd 63f4 a4be 3339 a2be
00000230: 6480 63bd 7df1 e23e 877b 96be c64f 9abe
00000240: 75ef a1bc 393f fb3d d92e 2a3e 595d c7bd
00000250: 3ef0 813e b46a b13c a238 3f3e 3e47 b13e
00000260: 9e2a 0d3d 46d2 bebd fd02 763d 716e 25be
00000270: 900c ac3e bb47 27be 4532 293e e857 f0bc
00000280: 6854 043e c452 3dbe 11e3 87bd 843e 8abe
00000290: a782 0c3e 1dd3 0fbe 8b30 96bd 439e 033f
000002a0: 74e9 323e bc0e 83bd 0865 6bbe 708f 2d3c
000002b0: 0e2c 2abe 8039 ed3d f86a 5fbe 675c 163d
000002c0: 737d 8e3d 0bb3 01be 8082 afbd 1196 453e
000002d0: 0eb5 a23d e56c 43be a400 65bb 7001 6a3d
000002e0: 7543 3ebe 0706 f0bd a24b a5be dc92 f3bc
000002f0: 0b97 113e 5e31 f4bd bcdc 6bbe 684a 803e
00000300: 5b21 8bbe 3232 ca3e d7b4 803e cff1 b4bd
00000310: 1d2e 90bc 81cb a33e da1c 623e 04a3 923e
00000320: e0e7 97be 4947 04bf 9130 08bf 8a2a 0bbd
00000330: 3566 b7be 17fa b93e e4df 14bf fbde b03c
00000340: 9ab6 b5be 8d60 fd3e 4f18 ad3d 1098 033e
00000350: be7b 273e 1de7 4f3c e9ee 6e3d c893 8d3e
00000360: 2ebf 383d a1d8 6ebf 46db 4a3e 78d4 2ebe
00000370: 5968 90be 9653 92be 6047 53bd 241a 5fbd
00000380: b990 dc3e 9833 84be 204a 363d 213f acbe
00000390: c0e8 dc3c 1cad dcbe b9b1 03be 54d3 b13e
000003a0: fdcc 763e 2be2 b13d b38a 95be e5bf 1dbf
000003b0: 2e57 9bbf c9a4 34be a930 74be 6da7 83be
000003c0: 6df2 e73d 94a2 23bc b2df fbbe ff36 50be
000003d0: ddd0 07be 0a93 c93e b80a f33e ef79 b0be
000003e0: 0416 303e 6e65 4ebd 1e3e 11be d101 12bd
000003f0: 1dbf 2abe 534d 49bf ed85 3c3e a1e4 2cbe
-0.014716676 0.012717171 0.19518556 -0.13073128 0.05741733 -0.036100034 0.2718197 -0.03082808
0.48613057 -0.14723775 -0.17061116 -0.37317747 0.27722287 0.35199073 -0.22171384 -0.12798007
0.17542373 0.04118825 0.084612764 0.40859228 -0.39330876 0.25209573 -0.5262211 -0.0994541
0.039045125 0.17083749 0.1184169 0.03675586 -0.18439275 0.008982555 -0.13899626 0.20328288
0.076213256 0.022499558 0.0060953097 0.21701968 -0.037994288 -0.043329008 0.012537132 -0.27336803
0.01588092 -0.12051996 -0.027696965 -0.0028964276 0.1681093 0.0016713327 0.15514478 0.19176786
0.015127907 0.034448795 -0.017854987 0.5213291 0.14750935 -0.22627236 -0.043717843 -0.021177817
0.06555908 0.048422392 0.06959288 0.17623812 -0.20084423 0.17478573 0.28434741 -0.23755266
-0.051689956 -0.0514936 -0.003768032 0.21539624 0.3823954 0.015365992 0.28557914 0.1409461
-0.17272586 0.06829863 -0.004504102 0.1939104 -0.06650222 -0.060728185 -0.013433327 0.37381715
-0.021937847 -0.12229271 -0.26718295 0.19159904 -0.18797289 0.24415953 -0.27174738 -0.35358337
-0.11984998 -0.11827499 -0.041649785 0.09946432 -0.036993153 -0.055612072 -0.09789168 0.067788504
0.082584776 0.03576868 -0.068678856 0.13405427 -0.042727135 0.063803904 0.021698192 -0.4105705
0.16451715 -0.057829972 -0.14230311 -0.19009688 -0.04209446 -0.094171256 -0.045555457 0.10550674
-0.08183457 -0.048297483 -0.0579779 -0.13037883 0.06457723 0.04005654 -0.041486155 -0.11384254
0.513704 0.4359108 0.092895076 -0.22560048 -0.39894927 -0.009007693 0.3130412 -0.17766777
0.027951762 0.2287953 0.09400295 -0.18950447 -0.38905856 0.061817057 -0.14049636 -0.21217115
0.20241691 -0.10879194 -0.32217702 -0.31684265 -0.055542365 0.44324866 -0.2939112 -0.30138987
-0.019767502 0.12267918 0.16619433 -0.097346015 0.25378603 0.021657325 0.18673947 0.34624666
0.03446447 -0.0931745 0.060061444 -0.16155411 0.33603334 -0.16335957 0.16523083 -0.029338792
0.12922823 -0.18488604 -0.06635106 -0.2700082 0.13721715 -0.14045377 -0.073334776 0.51413363
0.17471868 -0.06399295 -0.22987759 0.01059328 -0.16618368 0.11583233 -0.21818149 0.036709215
0.06957521 -0.12665956 -0.08569813 0.19295527 0.0794469 -0.19084509 -0.0034943009 0.057130277
-0.1858042 -0.117198996 -0.32284266 -0.029733114 0.14217775 -0.119234785 -0.23033422 0.25056767
-0.27173886 0.3949142 0.2513797 -0.08835184 -0.017600114 0.319912 0.22081318 0.28639996
-0.29669094 -0.5167127 -0.53199106 -0.033976115 -0.35820165 0.36323616 -0.5815413 0.0215907
-0.35490876 0.49487725 0.08451902 0.12850976 0.16355798 0.012689379 0.05833331 0.2765181
0.0451042 -0.932993 0.19810209 -0.17073238 -0.2820461 -0.28579396 -0.05158174 -0.05446829
0.43079165 -0.25820613 0.044504285 -0.33641914 0.026966453 -0.43100822 -0.12860765 0.34731543
0.24101634 0.08685716 -0.29207382 -0.6162093 -1.213598 -0.17640986 -0.23846687 -0.25713673
0.11325536 -0.009987492 -0.49194103 -0.2033348 -0.13263269 0.39369994 0.47469115 -0.34468028
0.17195898 -0.0503897 -0.14183852 -0.035646264 -0.16674466 -0.7863361 0.18410464 -0.1688409

attention.out_proj.bias f4 [64]
00000000: 2dd9 ee3d c7da 01be d27c 503e 26d8 803e
00000010: 0907 513e 422b 05be 5d1b 953c d8fe 243e
00000020: cb9c 793e 3370 04be 4730 413e c389 06be
00000030: 6ac4 a1bd 1775 fdbd 2972 f33c 1be5 363e
00000040: a099 273e 3a6f 06be bb5b a1bd 1bbe a53e
00000050: a94f 7dbd 39ab 27be 8d2f 953d bcde 0bbe
00000060: 3812 1cbd ab4b dabd 760e dc3e cd66 e53d
00000070: 4b26 7bbe a1a2 093e 9a60 acbd e1fd b9be
00000080: 6858 c73d 72ac 1e3e 15a3 22bd 043f 3cbe
00000090: 2f89 9dbd b7a8 75be 2ac5 883d 3498 013e
000000a0: 135d dc3c 6cbc d23e aca1 81bd 4a0e 1dbe
000000b0: ecf8 f2bd fe34 8b3e dfaf c7be b2d4 c23c
000000c0: 3a1f f33e 30a5 7bbd d76a 61bc 9b7c 943e
000000d0: 54ac 433e 0c00 2ebe 5436 22be b83f 3e3e
000000e0: 0418 c2bd b411 533e 452a 743e 0e0f 09be
000000f0: 4318 dcbd 4856 843d 89fd c4bd 2b88 2bbe
0.11662517 -0.12681113 0.20360115 0.25164908 0.2041284 -0.13004783 0.018201524 0.1611284
0.24376218 -0.12933426 0.18866073 -0.1313849 -0.07898791 -0.12375849 0.029717522 0.17860834
0.16367197 -0.13128367 -0.07878824 0.323716 -0.061843548 -0.1637391 0.0728446 -0.13659185
-0.038103312 -0.10658964 0.42979783 0.11201248 -0.24526326 0.13440944 -0.08416863 -0.36326507
0.09733659 0.1549547 -0.03970631 -0.18383414 -0.07692181 -0.23990141 0.06678231 0.12655717
0.02689985 0.4115938 -0.063296646 -0.15337482 -0.11863884 0.27188867 -0.39001366 0.023783062
0.4748476 -0.061436832 -0.013758383 0.29001316 0.19108707 -0.16992205 -0.15841037 0.18578994
-0.09477237 0.20612222 0.2384425 -0.13384649 -0.10746815 0.06461769 -0.096186705 -0.16751163

norm1.weight f4 [64]
00000000: af9c 9e3f 74d8 713f 6b88 143f f9e0 283f
00000010: db6f 833f dbfc 4b3f f771 a73f f44b 1c3f
00000020: bc83 323f e2d2 803f 8c8d ba3e 4d86 8a3c
00000030: 6604 613f 3e69 363f 43b3 d43f 745a 693f
00000040: 2a74 cb3f ddc9 993f b717 a03f c62f 473a
00000050: bb1c 583f 9849 983f 0102 9b3f b4da a53f
00000060: 3b87 803f 93e3 913f 9a4d a23f a80f a73e
00000070: 1558 c53e ac3d 733f 1725 863f 465c 993f
00000080: ff7c 973f 523a 603f 2d79 243f 9089 ec3d
00000090: 23d9 5f3d 764b c53f 573e 473f c847 443f
000000a0: 82a2 be3f bc0b 9c3f cdb4 653f cecd 863f
000000b0: 7a67 913f e64b bb3f 1aa5 523f d318 b83e
000000c0: b573 093f ea4a 273f f05c 833f 3f45 813f
000000d0: f50c 8e3f 5024 8d3f 36b6 aa3f da11 6a3f
000000e0: 4168 713f 8978 1b3f 8f29 483f d800 8d3f
000000f0: 412a 2f3f bbaa 733f ae6b 4f3f 8ac3 f83e
1.2391566 0.94470906 0.5802066 0.6596828 1.026851 0.796827 1.3081654 0.61053395
0.6973226 1.0064356 0.36436117 0.016909743 0.87897336 0.71254337 1.6617206 0.91153646
1.5894825 1.2014729 1.2507237 0.00075983664 0.8441884 1.1897459 1.2109987 1.2957368
1.0041269 1.1397575 1.2679932 0.32629132 0.38543764 0.9501598 1.0480069 1.1981285
1.1835021 0.8758899 0.642474 0.115496755 0.054650437 1.5413654 0.778295 0.7667203
1.4893343 1.2191081 0.89729005 1.0531557 1.1359704 1.4632537 0.82283175 0.3595644
0.5369218 0.65348685 1.0262737 1.0099257 1.1097704 1.1026707 1.3336856 0.9143349
0.94299704 0.607308 0.78188413 1.1015882 0.6842385 0.9518239 0.8102368 0.48586684

norm1.bias f4 [64]
00000000: bacb 12bd 5c0e 543e f5b7 bcbd 474f 9fbe
00000010: 320d 3c3e 7d6a 3fbd c83d 373d adb0 203e
00000020: 6399 6abe 0600 b43d 2af6 a2be 4a84 8e3b
00000030: 55fe 8fbd 317a fc3c fe5b 18bc 4612 1fbe
00000040: 04a2 a23d dd9a 843d 1af2 eb3d fc36 1d3c
00000050: 6465 ddbc 69ba 12be dacc 473d 6683 2bbe
00000060: 2c87 66bd 76aa 36bd 8131 de3d 7af0 e5bd
00000070: 668c b13d 3d73 20be 678e 14be ab77 c0bc
00000080: b6cb c3bd 5483 57be 2337 ff3d 19a9 a33d
00000090: c631 263d 022f ccbc b19c 123e 4649 193e
000000a0: ff32 4fbc 382c 20be 7c1d 473e 2f1b d83d
000000b0: 4a96 1e3e 9149 42bd f34e f13d a633 433e
000000c0: 285e 073e 9b56 663e 741f 0fbe 66e0 7abe
000000d0: 612e e53c e4b5 d9bd e32b acbc dc36 ee3a
000000e0: 1f92 00be ab23 2cbc 26c6 a23d 38b1 36be
000000f0: 1f42 80bc 6260 323e 50f1 663e 69e2 4a3e
-0.03583882 0.20708603 -0.092147745 -0.3111517 0.18364409 -0.046732415 0.044736654 0.15692396
-0.22910075 0.08789067 -0.31828433 0.004349266 -0.07030932 0.030819984 -0.009299276 -0.15534315
0.07941058 0.0647485 0.115207866 0.009595629 -0.027025886 -0.14328922 0.048779346 -0.16749343
-0.056281254 -0.044596158 0.10849286 -0.11227508 0.08669357 -0.1566896 -0.14507447 -0.023494562
-0.09560339 -0.21046191 0.12461688 0.07991237 0.04057481 -0.024924759 0.14317586 0.14969358
-0.012646436 -0.15641868 0.19444841 0.1055206 0.15487018 -0.04743344 0.117826365 0.19062671
0.13219512 0.22493975 -0.13976842 -0.24499664 0.027976217 -0.10630396 -0.02101702 0.0018174308
-0.12555741 -0.010506551 0.0794795 -0.17841041 -0.015656529 0.1741958 0.22552991 0.19812931

norm2.weight f4 [64]
00000000: eff4 653f 5951 8e3f c11c 163f ef4b a63e
00000010: ef24 3a3f b831 f13e d5b1 c83f 8cd5 5d3f
00000020: b854 543f 999f 613f 6e99 613f 46fb dd3e
00000030: a554 073f 7761 8b3f bddd 453f 26ae 863f
00000040: 017b 5d3f c95b 213f 5a73 863f e39f 4c3f
00000050: f9a9 3a3f 8124 2b3f 5f31 853f 1a72 303f
00000060: 8eb3 3f3f 3939 a43f e444 9f3f 9122 573f
00000070: ac3a 763f 7961 7f3f a466 043f 4a07 8c3f
00000080: 8003 ed3e 729a 793f bdd7 3e3f 08f3 683f
00000090: 0f55 443f d3ba 953e 9c85 753f 7d59 133f
000000a0: b036 943f 3534 943f dc9d 8a3f 2e23 843f
000000b0: 1a23 6c3f 0578 6e3f af25 6e3f d00e 4c3f
000000c0: 4acb 483f 72ca 053f 1d47 5d3f 783d 463f
000000d0: cbd6 863f 3dba 823f e943 7d3f 1951 6c3b
000000e0: 0f46 503f f93e 8f3f 1712 213f 57a9 1c3f
000000f0: 13d5 193f 1346 1a3f e098 103f 3e1a 7c3f
0.89826864 1.1118575 0.58637625 0.32479808 0.72712606 0.47108245 1.567927 0.8665397
0.8294177 0.8813415 0.8812474 0.4335577 0.5286353 1.0889119 0.7729147 1.0521896
0.86515814 0.6303068 1.0503953 0.7993147 0.7291561 0.66852576 1.0405692 0.68924105
0.74883354 1.2829963 1.2442899 0.8403712 0.96183276 0.99758106 0.5171912 1.0939724
0.46291733 0.9750129 0.7454794 0.90995836 0.7669229 0.29244098 0.95906997 0.57558423
1.1579189 1.1578432 1.0829425 1.0323236 0.9224106 0.93151885 0.9302625 0.797101
0.78435194 0.5226203 0.86436635 0.77437544 1.05343 1.0213085 0.9893175 0.003605908
0.813569 1.1191093 0.6291823 0.6119589 0.6009075 0.60263175 0.5648327 0.9847754
