IWD-QUEEN demo/main/model/model_IWD_Transformer.pt (torch, 228432 bytes, 25 tensors)

cls_token f4 [1, 1, 64]
00000000: 1ceb 513f f453 1abf a662 9abe a022 bf3f
00000010: 9760 f5be 8d09 bd3e e636 9bbe d209 013e
00000020: fb81 203f b01c 1bbf 6269 55bf 7c57 d93e
00000030: bd9a e2bd 6b8c 223f 3078 e1bf f33d 62bf
00000040: b58c 4abf d212 2ebf bd0f 26be 0895 bcbe
00000050: 0a2a b63f bea3 a23f c5af 1fbf c019 09bf
00000060: a806 b03f 75eb 31c0 d7f5 62bf ccf1 5f3f
00000070: 784c 0abf 1673 413f 0d46 663d 4d2e a4be
00000080: 64a8 4dbe 0e2a 1c40 9c97 193f f350 e23f
00000090: 5100 263e 98e9 583f b850 153f 3207 3dbf
000000a0: f02b 85bd 9273 24bf 106e 923e ea6e 51bf
000000b0: cf80 b13f 0d78 8c3e 5d91 24c0 e906 6b3f
000000c0: 524c 2ebf bae1 083f 291a 03c0 06e1 abbf
000000d0: a364 a43f 3fd0 94bf a262 ac3f 9a80 e63e
000000e0: 0cc9 49be d9c0 41bf 2c4e 1c3f d2b0 0b3f
000000f0: 53c4 93bd 023c a03f 5d81 95be 89c8 c4bc
0.81999373 -0.6028435 -0.30153388 1.4932442 -0.47925255 0.3692135 -0.30315322 0.12601402
0.62698334 -0.6059065 -0.83363926 0.42449558 -0.1106467 0.6349551 -1.7614803 -0.88375777
-0.7912095 -0.6799747 -0.16216941 -0.36832452 1.4231579 1.270622 -0.6237758 -0.53554916
1.3752031 -2.7799962 -0.8865637 0.8747833 -0.5402293 0.7556623 0.05621915 -0.32066575
-0.20083767 2.4400668 0.5999696 1.7680954 0.16211058 0.84731436 0.5832629 -0.73839104
-0.06502521 -0.64238846 0.28599596 -0.81809866 1.3867434 0.2743534 -2.5713723 0.9180742
-0.68085206 0.5346943 -2.0484717 -1.3428047 1.2843212 -1.1626052 1.34676 0.4501999
-0.197056 -0.7568489 0.6105678 0.5456668 -0.0721518 1.2518313 -0.2920026 -0.024021404

pos_embed f4 [1, 41, 64]
00000000: 8e39 30bd 80ab 65bf d604 1c3f b208 3e3f
00000010: 3e7c 8abc 93f2 1f3f 2ff7 dcbd c68b 073f
00000020: d258 0340 9dff 793f bcb0 8d3f 3134 7a3f
00000030: 78c9 babd f289 a53d 60fe 053f e6fb 443f
00000040: c849 773f 0560 ce3e 74f1 743e 3c89 e93f
00000050: 92cb 70bf c482 cbbf 506e c93e b5e2 de3e
00000060: 1280 753d 2896 6c3f ff25 443e 994c 9b3f
00000070: dd4b babf 9f66 043f 1d01 e83e f038 25be
00000080: 1f66 c8be 7ccc a53e fb1e e13e de0b 6fbf
00000090: 3957 d1bf 3560 4abf fd75 b7be 27e5 7f3f
000000a0: d4be 6fbd e252 823f 801a b5bf d0fb 5dbf
000000b0: f89d 93bf 5791 fa3d ae43 cfbf 2f92 273e
000000c0: f466 b33f c1b6 f6bf 0050 b93f 11e8 303e
000000d0: f7a4 0e3e 8fb9 243f 4d60 01be 1eb8 b4be
000000e0: 6a91 a7bf 9854 143f a9a4 833d 5d76 8f3f
000000f0: c83c 723e 57ed 013f 995f e0be 6604 0dbf
00000100: 6a1e 0fbf 8f0d 983f c35d b73f e32e 17be
00000110: 6495 25be d687 95bf d573 08bf 7d5d 83be
00000120: 4e80 973f 0c6f 853f 015f 083f 05d1 0d3c
00000130: 570c 95bf 14e5 943f db4f c53f 3b10 8ebf
00000140: 73ce cfbe c223 8e3e ccdc 11c0 5e15 043d
00000150: 78f7 7f3f c00d 1c3f 7b6d 8b3f 83ee dfbf
00000160: b2a7 d43f 6542 76bf e1fc 45be 054b b6bf
00000170: 4386 c43d ae5f e1be 2e26 15bf e7ed 8dbf
00000180: f950 863f 7219 11be f23c 8ebe ff6d f339
00000190: dcb3 0940 7325 843e d326 0abf 353a 56bf
000001a0: 2b1b c83e f9f6 803f 3034 713d 137a cd3e
000001b0: be51 ee3f fce0 58be f589 d13d 930d 653f
000001c0: 63d1 c7bf 316f fabe c45e e03d 337b 20bf
000001d0: 5b34 76c0 8f2f 09c0 f23b 9b3e 625a cf3e
000001e0: fd32 33bf 38da 8ebe f9bc 25bd 2b35 ea3e
000001f0: cfc6 8a3f 44bd 75bf 01da d7be f9c4 283f
00000200: 409e 8f3d d189 d33f 2a36 edbd cc76 c23f
00000210: c76e 6dbe f7ff a63f 29c2 133f 6f9c 0ec0
00000220: 3a54 3dbe 95c2 993f 51ae 12c0 4d28 9d3e
00000230: 92b6 52bf 7789 d43f 1105 d4be 5b56 90bc
00000240: 233e 5bbd 8739 903e 2a39 933f 17f3 75bf
00000250: df25 8fbd 2939 6b3f 965f 80bd e09a 1c3f
00000260: 0320 b53f 513f a1bf b2c1 9fbf 55c5 64bf
00000270: 3b00 29bf 3eb7 1a3f 7023 783e b5c6 783f
00000280: e29e a9be 7d2d 3d3f f7d8 623e d45a a73e
00000290: 1ef9 173f f0ab 97bf 65f3 7a3f 7c64 d33d
000002a0: 9e25 80be 7faf 9d3e 01a5 8d3e 0473 febe
000002b0: 0595 a4bf 8728 2e3e ec57 c53e 479f 843f
000002c0: 2c90 d8be 90af 2bbf f840 ce3f cc27 05c0
000002d0: 0c27 6bbf 051d 093f 7bab b43e 77e1 f73f
000002e0: de63 cbbe e754 23be 9092 9b3f 18b3 9fbf
000002f0: fb0c 7bbf 2acc c7be 1864 e8bf 22df 52bf
00000300: 9750 41be 9bd3 823f e3d9 5ebf a769 f9be
00000310: 6243 173e c763 02be f116 be3f 958a 8fbf
00000320: 649b 213f e6b3 e7bc ab79 663d e824 fe3f
00000330: 2ec7 9a3f 067b bf3e 9579 0d40 a2f6 73be
00000340: 0e4d 28bf bcb0 cf3e 7dc0 873f 6663 803e
00000350: 7a17 bc3e 2279 c0bf 31a6 413f b727 7a3f
00000360: 7a4c cc3e f86e 853d f5f2 3e3e 24c7 363f
00000370: e862 1f3f 55b7 09bf 1764 31bf 7c99 9abe
00000380: 40ea 8abf fc4f ae3f 5e2a f6bf 260c 5bbf
00000390: e08a 4dbf 260a 13bf a87c 4e3f b94f 4e3e
000003a0: 99b9 66bf 5c62 d93e 5916 da3e ad44 cdbe
000003b0: 73cd 283e 3703 003e 147d babe 9a9f 63bf
000003c0: 6c17 a3bc b857 b4be c11e 15bf 95d7 b13c
000003d0: bf09 2a3d fa11 b73e 1f64 663e 99fb 683f
000003e0: 074d 07be 7de8 33bd d5e5 dc3f 33f8 923f
000003f0: 6ddd 0cbf aff0 3d3f 6ce8 dc3e 53e3 b23c
-0.04302364 -0.89714813 0.6094488 0.7423202 -0.016904946 0.62479514 -0.10789334 0.5294765
2.0522962 0.9765566 1.106956 0.9773589 -0.09120458 0.080829516 0.5234127 0.76946867
0.96596956 0.40307632 0.23920232 1.8245006 -0.94060624 -1.5899282 0.39341974 0.4353234
0.05993659 0.9241662 0.1915512 1.2132751 -1.4554402 0.5171909 0.4531335 -0.16135001
-0.39140412 0.32382572 0.4396895 -0.9337748 -1.6354743 -0.7905305 -0.35832205 0.99959034
-0.058531597 1.0181544 -1.4148712 -0.8671236 -1.1532583 0.122347526 -1.6192529 0.16364358
1.4015794 -1.9274522 1.4477539 0.17276026 0.13930117 0.6434564 -0.12634392 -0.3529672
-1.3091252 0.5794158 0.06427891 1.1207997 0.23655999 0.50752777 -0.43822935 -0.55084836
-0.55905783 1.1879138 1.4325489 -0.1476398 -0.16170269 -1.1682079 -0.53301746 -0.25657263
1.183603 1.0424514 0.53269964 0.008655791 -1.1644391 1.1632409 1.5414995 -1.1098703
-0.40587196 0.27761656 -2.2791014 0.03224694 0.9998698 0.6095848 1.0892786 -1.7494663
1.6613677 -0.9619506 -0.19334747 -1.4241644 0.09595921 -0.4401831 -0.5826138 -1.1088227
1.0493461 -0.14169863 -0.27780873 0.00046430525 2.1516027 0.2580982 -0.5396549 -0.83682567
0.39083228 1.007537 0.05888766 0.40132198 1.8618696 -0.21179575 0.10231391 0.8947384
-1.5610775 -0.48912957 0.10955575 -0.6268799 -3.8469455 -2.1435277 0.30319172 0.40498644
-0.69999677 -0.27900863 -0.04046342 0.4574369 1.0841922 -0.9599192 -0.4215851 0.65925556
0.07012606 1.6526433 -0.115825966 1.5192504 -0.2318679 1.3046864 0.5771814 -2.228298
-0.18489161 1.2012507 -2.2918894 0.3069481 -0.8230983 1.6604451 -0.41410115 -0.017619302
-0.053526055 0.2816889 1.150182 -0.9607405 -0.06989645 0.91884094 -0.062682316 0.6117382
1.4150394 -1.2597448 -1.2480986 -0.89363605 -0.66015977 0.60435855 0.24232268 0.971782
-0.3312903 0.73897535 0.22153078 0.32686484 0.593645 -1.1849346 0.9802764 0.103219
-0.250287 0.30797955 0.2766495 -0.49697125 -1.2857977 0.17007647 0.38543642 1.0361108
-0.42297494 -0.6706476 1.6113577 -2.080554 -0.91856456 0.53559905 0.3528708 1.9365681
-0.3972463 -0.15950356 1.2154102 -1.247653 -0.9806668 -0.39022952 -1.8155546 -0.82371724
-0.18878399 1.0220827 -0.8705122 -0.4871342 0.14771798 -0.12733375 1.4850751 -1.1214167
0.6312773 -0.028284024 0.056268375 1.9855013 1.2092035 0.37398547 2.2105458 -0.23824552
-0.65742576 0.40564525 1.0605618 0.25075835 0.3673666 -1.5036967 0.7564421 0.9771685
0.39902097 0.06515306 0.18647368 0.71397614 0.62260294 -0.5379537 -0.6929335 -0.30195224
-1.0852737 1.3618159 -1.923168 -0.8556541 -0.8029003 -0.5743736 0.8065896 0.201476
-0.9012695 0.42457855 0.42595175 -0.40091458 0.16484623 0.12501226 -0.36423552 -0.8891541
-0.01990863 -0.35223174 -0.5825005 0.021709243 0.0415132 0.35755903 0.2249913 0.9100891
-0.13212977 -0.04392289 1.7257639 1.1481994 -0.5502537 0.7419538 0.43146074 0.021836912

patch_emdedding.proj.weight f4 [64, 1, 2, 2]
00000000: ae6b 03bf 4dad 723f de99 82bf da09 6e3d
00000010: 0bc2 413e 7833 bdbf 8a85 fbb9 a6c0 f7bf
00000020: 9b34 843f 635b 0bbf fae6 3d3f 091c 00bf
00000030: 13af a9bf 9601 a8bf e278 83bd aa85 01c0
00000040: 6e7e d13d 37cc 5a40 d4f0 08bd a5a1 1740
00000050: a827 68bf 22f7 19c0 102d 15bf e272 1ac0
00000060: 8d43 9dbf 9a9c 82be 16d3 37bf d9bc 53bf
00000070: 303e e33f 566c 743e fcd2 923f 31e8 b9bb
00000080: ac05 2cbf de6b 90bf 50b5 ccbe 75b9 19c0
00000090: 12e7 25bf b240 7dbf 3c0f 32bf e4f1 88bf
000000a0: f88f d63e 4960 2a40 2037 63be 00ea b23f
000000b0: 128a 51bf caf7 debe 21e1 7f3c 0f1b 94bf
000000c0: 66f3 10bf 3360 7a3f 83e6 8abf 19ea 943f
000000d0: d11f 94bf 0ad8 16be 8f58 21bf 9578 6dbd
000000e0: 16fc 12be 3a8e 4a40 3ed3 cbbe b8db 6140
000000f0: eea3 4a3f 6f3c 293f 3a23 58be a5bb b73f
00000100: 1c0c 7a3d 9bd4 3ec0 a241 72b9 3d74 33c0
00000110: 9267 c6bf 5fbe 763d 82a2 bebe e923 babe
00000120: 32d7 d53f ea63 c13f d868 f83f c335 d93f
00000130: a853 cabe e957 8d3f 59a2 6fbd 9c90 783f
00000140: 9326 90be 06fd 85c0 864f e1be 71b7 89c0
00000150: 2d8b 9e3f 2cfe 0240 ecd5 173f eca7 0240
00000160: 0d6c d23f 9fc7 2440 a6cb cd3e 4646 5f40
00000170: c816 0dbf 72c3 13c0 b7a5 85be 606b 13c0
00000180: f8d8 dd3e 61ab 42bf 3205 32bd ec5d db3d
00000190: 9a49 2ebf dab4 7cc0 07c4 8d3e 63a0 86c0
000001a0: 07c3 aa3f 28ae 413f 5e1e 0a3f e972 383f
000001b0: 702f 963e 89af 94bf 5ed1 b43e 1901 f6bf
000001c0: 8a09 f93e da77 0a40 0a51 eabd 217c 853f
000001d0: c5ce 32bf e94f 01c0 d7c2 3dbe 7316 cbbf
000001e0: d080 db3e 8f8e dc3f d15b 77bf 44d9 1e40
000001f0: 34f4 75bf 214b a4bf 5fc2 1cbd 0800 c7bf
00000200: d0e8 6bbe 9c0c 33c0 8b23 91be 0db4 4cc0
00000210: abf1 a13f 1edf 0abf 5e79 5f3f 70fb ccbd
00000220: 62c7 903e ead4 4640 88d0 debd acbd 2440
00000230: 3729 de3f d1ef 5cbf b05a 843f 7984 bb3e
00000240: f7b1 c2be 168f c6bf 641e 1c3d 8050 f1bf
00000250: 394f cb3e 9f99 1140 e051 f03e e8ea e13f
00000260: 38db 8cbf e0fa 64bf dd9e c0be 270c 28bf
00000270: 3eef 29bf 451c cabe c1ce 90be 1e31 a7be
00000280: 5312 8c3f f558 243f e20b 113f 0d83 a53f
00000290: 4743 9c3f 67e0 35be b57f 903e 89e4 0e3f
000002a0: cab4 47bf 5332 8abd 9460 74be 41bb 99bf
000002b0: 0b47 593f fa6f fd3f 39ae ec3e a279 2840
000002c0: 2206 8f3f 1ba8 2f40 286b 533e 4391 ab3f
000002d0: fc36 86bf aa73 9abf bbe3 33bf 0861 aebf
000002e0: ff24 89bf cbed 22bf d115 d4be f36a 63bf
000002f0: c39c 94be a0d7 17c0 8294 263f 1291 3ac0
00000300: ee68 12bf e6a3 453e 97cc 04bf ea5c edbe
00000310: 1338 713f a730 2ebf 3621 a93e 7019 503f
00000320: d001 5b3f 8203 f53e d97f 95bc b24c 493f
00000330: 8dd6 1a3f a39f 3840 55a2 a83e 231a 4c40
00000340: 3725 3abf 66a1 f3bf 8023 95be baf4 25c0
00000350: 143d 113d 6eab 3ac0 ba7c 223f d1b1 ddbf
00000360: 93fa 51bf 3410 9b3f afc9 57bf 39c2 e43d
00000370: be7c 87be e090 65c0 92d1 45be 7e1e 63c0
00000380: 3773 a03f 7f21 243f 22c4 ef3e 0849 8a3d
00000390: d7bb bc3e 4822 9e40 baf0 a93e 747b a140
000003a0: 411a e9be 4553 1d40 a933 48bf 3758 5240
000003b0: ad5f 83be c9a4 14c0 4898 44bc e58c 59c0
000003c0: 3b48 153d e75d bb3d 1814 b3bc 0be6 313f
000003d0: 1202 abbf 56a7 0dbf 6f26 31bf dbee 93bf
000003e0: 000c e6bc fa0f 613f ed6c c5be 5500 dfbe
000003f0: 005a 93bf 1943 1ebe c6f0 23bf 281e cfbe
-0.5133618 0.94795686 -1.0203207 0.058114864 0.18921678 -1.4781332 -0.00047973945 -1.9355667
1.0328554 -0.5443632 0.7418057 -0.5004278 -1.3256553 -1.3125484 -0.06419541 -2.0237832
0.10229193 3.4187143 -0.033432797 2.369241 -0.9068551 -2.4057088 -0.58271885 -2.413262
-1.228624 -0.25510103 -0.71806467 -0.82710034 1.7753353 0.23869452 1.1470637 -0.0056734313
-0.67196155 -1.1282918 -0.3998208 -2.4019444 -0.6480571 -0.9892684 -0.69554496 -1.0698819
0.41906714 2.6621268 -0.22188997 1.3977661 -0.81851304 -0.43548423 0.01561764 -1.1570758
-0.56621397 0.9780304 -1.0851597 1.1633941 -1.157221 -0.1473085 -0.63025755 -0.057976324
-0.14353976 3.1649308 -0.39809602 3.5290356 0.79156387 0.6610784 -0.21107188 1.435414
0.061046705 -2.9817264 -0.00023103369 -2.8039696 -1.5500357 0.060240146 -0.3723336 -0.36355522
1.6706297 1.5108616 1.9406996 1.6969532 -0.3951695 1.1042453 -0.058504436 0.97095656
-0.2815443 -4.1871367 -0.44005984 -4.3036427 1.2386223 2.0467634 0.59310794 2.0414991
1.6439224 2.574684 0.40194434 3.4886642 -0.55112886 -2.308804 -0.26102993 -2.3034286
0.43329597 -0.76042753 -0.043461986 0.107112736 -0.6808106 -3.9485383 0.2768862 -4.2070785
1.3340768 0.75656366 0.53952587 0.7205034 0.29333067 -1.1616069 0.35315984 -1.9219085
0.4864009 2.1635652 -0.11441238 1.0428506 -0.69846755 -2.0205023 -0.18531357 -1.5866226
0.42871714 1.7231005 -0.96624476 2.4820108 -0.9607575 -1.2835428 -0.038271304 -1.5546885
-0.2303803 -2.7976446 -0.2834743 -3.1984894 1.2651876 -0.542467 0.87294567 -0.100088954
0.28277117 3.1067452 -0.10879618 2.5740767 1.7356328 -0.8630343 1.0340176 0.36624506
-0.380264 -1.5512416 0.03811492 -1.8852692 0.3970888 2.2750013 0.46937466 1.7649813
-1.10044 -0.89445305 -0.37621203 -0.65643543 -0.6638068 -0.39474693 -0.2828274 -0.3265466
1.0943092 0.6419824 0.56658757 1.2930619 1.2208031 -0.17761384 0.28222433 0.55817467
-0.7801024 -0.0674788 -0.23864967 -1.201027 0.8487403 1.9799798 0.4622667 2.6324239
1.1173747 2.7446353 0.20646346 1.3403705 -1.048553 -1.2066548 -0.70269364 -1.3623362
-1.0714415 -0.63644093 -0.41422895 -0.88835067 -0.2902585 -2.3725357 0.65070355 -2.9151044
-0.5719136 0.19300804 -0.5187468 -0.4635995 0.9422619 -0.6804299 0.3303315 0.81288815
0.8554964 0.4785424 -0.01824944 0.7863265 0.6048363 2.8847435 0.3293635 3.1890953
-0.72713035 -1.903363 -0.29128647 -2.593062 0.03545864 -2.9167132 0.6347157 -1.731989
-0.8202297 1.211432 -0.8429212 0.111698575 -0.26462358 -3.5869675 -0.19318226 -3.548736
1.2535161 0.6411361 0.46829325 0.06752211 0.3686206 4.9416847 0.33191472 5.04632
-0.45527843 2.4582074 -0.7820383 3.2866342 -0.25658932 -2.3225577 -0.011999197 -3.3992245
0.036445837 0.0914877 -0.021860167 0.6949164 -1.3360007 -0.5533346 -0.6919927 -1.1557268
-0.028081894 0.87915003 -0.38559666 -0.4355494 -1.1511841 -0.15455283 -0.64039266 -0.40452695

patch_emdedding.proj.bias f4 [64]
00000000: e128 d23d acb0 8cbe 257c d83e 2c51 bc3e
00000010: 25ba e4be 4b29 a1bd 203b 893e c3f0 cebd
00000020: b29c fc3d a53c 0abe b14a 9f3e f49e 04be
00000030: 18d2 8e3e 3fc6 2f3e 0b46 b9bd ab67 a53e
00000040: 0712 c03d a600 3abe ce89 09be 7ed8 ba3e
00000050: 1f22 afbe e2b5 84bd 5e61 18bf e7f4 b63e
00000060: a98e bcbe a46f 333d e29d eb3d 2b6d 48b9
00000070: f258 3a3e 291a b4be e758 34bd 9ea4 3a3e
00000080: a486 213f ef23 503e 99d2 22be f810 18bc
00000090: 6032 1ebe db02 5ebe c604 d0be 7519 1b3c
000000a0: 147f 913e b44c 833d 201b 84be 2454 4e3d
000000b0: 32cd bcbd 56d4 c73e bb43 56be 0f06 ddbd
000000c0: 304a eebe 005c 523e e46b 1b3e 8b9c 9d3e
000000d0: 05e8 b23d 368d e73e cd3a c73d 6051 8a3e
000000e0: 20de c03e f752 b63e c050 6abe 4e10 223f
000000f0: a9fd df3c 58c7 20be ef1e 35be 0c59 f9bd
0.10261703 -0.2747854 0.42282215 0.3678068 -0.44673267 -0.07869204 0.2680292 -0.101045154
0.12334575 -0.13499697 0.31111673 -0.12951261 0.27894664 0.17165469 -0.09046563 0.32305655
0.093784384 -0.1816431 -0.13431475 0.36493295 -0.3420572 -0.06480004 -0.5952357 0.3573372
-0.3682759 0.04380764 0.11504723 -0.00019114155 0.18197992 -0.3517621 -0.044030096 0.18226859
0.6309607 0.20326208 -0.15900649 -0.009281389 -0.15448904 -0.21680777 -0.40628642 0.009466519
0.28417265 0.06411114 -0.25801945 0.05037321 -0.092188254 0.39029187 -0.20924275 -0.10792171
-0.46540976 0.20542908 0.15177876 0.30783495 0.087356605 0.45224923 0.09728012 0.2701521
0.37669468 0.35610172 -0.22882366 0.6330613 0.027342634 -0.15701044 -0.17687581 -0.121751875

attention.q_proj.weight f4 [64, 64]
00000000: 912b 2f3e 798a 2f3e 2030 08be fa8d 2abe
00000010: 5c27 98bd 9c49 ccbd 01b3 8d3e f610 8bbe
00000020: 696b dbbd 730e 86be f6bf f6bd 660c 98bd
00000030: 0848 8b3c fff4 3ebe 81db 983e 46d6 2bbe
00000040: 384c f3be f0c8 753c 1e15 7d3d b46e a2bd
00000050: e62e 213e 2d0d be3e de76 833d e2dd 6ebe
00000060: e7dd 6cbe 4b01 d6bd 9753 c23d e672 84be
00000070: 770c 923d f098 19bd 6143 b33c fe23 1d3d
00000080: f987 b33c e3ca 85be 504f 97bd cfbb 863e
00000090: cea6 823e c3c1 4d3e 367c 6b3d 9945 6fbe
000000a0: 916c 843e 1264 cabe 71e8 903e bb30 d73d
000000b0: d255 ad3e b283 dcbc a5d8 4d3e bab6 38be
000000c0: 3f9a 7cbe 89cb 363e 0c8c d4bd b1cd 58bd
000000d0: 5f91 87bd 0384 57bd 6fde cebe 8b67 e03e
000000e0: 2d14 fc3d 3eb3 3abe 1c48 e03c 3fb3 75be
000000f0: 11cc 763e cfb6 11be d9b6 d43d 17c1 263b
00000100: 1fca 063e e511 b53e ed95 673e a255 3abd
00000110: a8c0 c8be 8a0b 2a3d 7ff1 f33c f435 30be
00000120: 0187 12be ff61 b43d 5559 c7be fb1f 1ebe
00000130: 4e85 8abe 8af0 cabe 8d29 1f3f d309 4f3e
00000140: 04c4 d5be 9619 17bf 9e76 9cbe 69d2 2bbd
00000150: 4d0c fcbd 043d 093e a20f a8be 5648 823e
00000160: 7ad3 88be 02ab adbe f3b4 75be 3f3e 9fbd
00000170: 216f 3fbd 9459 103e c1f9 453e e784 e5bc
00000180: bfdc 5abe d4e9 3f3d 89e0 97bc 8a8d 1b3d
00000190: 633c 4a3d d6f8 10be 9bce 70be fcee 40be
000001a0: b22d 49bc 023c 88be 82ab 393d 121b 62bd
000001b0: 7a5c 213e 2319 e03e e578 d03d bead 27bf
000001c0: 722f fbbb 0689 203e de05 18be 71e7 04be
000001d0: e7ff abbe c4ee 863e 1ac0 23bf 863a 163f
000001e0: c687 8e3d b599 3e3e e01e 48be 4d28 76bd
000001f0: 2b1e fc3e 30b9 d9be d82e abbb 47e3 aebc
00000200: 1ea6 3dbe fdcb 99be 3332 25be 2b13 143e
00000210: e557 a13d 95e7 c8bc 7fd0 98be bbc2 763e
00000220: 6100 ca3d e9ad cdbd 354c c03d 1919 bbbc
00000230: e2b1 083e 1948 933e f7db c3be 299a 533d
00000240: f652 e33e d580 0b3f 1d12 d73e e4a4 473c
00000250: 56d6 84be 3596 c2bd 300a f23d fb9f f33c
00000260: 231a 9a3e 00a3 553d 4fdb c93e 67ba 1b3e
00000270: 1bf8 f1bc d862 ddbd e4fd 3a3e 1bc3 4b3e
00000280: 0d34 3dbe a671 113e ab1e a73d 5f4f 9b3c
00000290: 444c f4bc 27d0 d3bd 789f 673e ef69 de3e
000002a0: 354d 7cbd 8269 9b3e 64a2 dfbd 5829 48be
000002b0: 41f1 8fbe ea92 3bbe 42e6 9e3c 57c3 c63e
000002c0: b784 f83d d8d4 a1bc 867d 983d c91b 243e
000002d0: 9e8e 1d3e dfd6 b83d f8a4 223f cdc5 afbe
000002e0: f288 3cbe eb84 05bd ce32 293e 2bbc 5f3c
000002f0: eddc e4be 8f1e 483e a470 08bd d0bd 94bd
00000300: daa1 3f3e 5da2 503e 598f f53d bef9 2fbe
00000310: 148e 66be 26ca 123e 4065 343e 6b6c 53be
00000320: 9c12 79bd e219 d83d 04af fabe 6739 1bbe
00000330: d855 abbe 1e65 d3be 83a9 153f 3c81 873e
00000340: 213f babe 439a e9be d2a0 94be 7c2a 19be
00000350: 94df 45bd 648c e53d 0baa 80be a9d9 063e
00000360: e269 dfbe 5b64 54be 5b2b bebe f973 c53c
00000370: d046 2f3e dc7f f73d 2175 823e e61a f3bd
00000380: d278 7abe 89f7 28bd b161 473e 79f9 90bd
00000390: 92ca d13c 0994 bdbd 0df4 93be 2a52 a4be
000003a0: 8da9 b5bd 8f85 10be 9863 243e 2bf9 c1bd
000003b0: 2469 923d c080 a23e de38 6a3b 13c7 36bf
000003c0: 41a3 5abe 8f64 f53d 4882 73be c3d8 a4be
000003d0: 3f61 02bf d356 423e 4e8e 38bf b2e4 2a3f
000003e0: f6f2 6c3e 4e1e 613e a750 52be ed8f 06be
000003f0: df27 f13e 677d c3be 5bb7 f83c ed7b a2bb
0.17106463 0.17142667 -0.13299608 -0.16655722 -0.07429382 -0.099749774 0.27675632 -0.27161378
-0.10713846 -0.261829 -0.120483324 -0.0742424 0.01700212 -0.18648146 0.29854968 -0.16780958
-0.47519088 0.0150015205 0.061787717 -0.07931271 0.15740547 0.37119427 0.064191565 -0.23326829
-0.23131524 -0.10449465 0.094886 -0.2586891 0.07131284 -0.03749937 0.021882715 0.038364403
0.021915423 -0.26131353 -0.073881745 0.26315162 0.25517887 0.20093445 0.057491504 -0.23366393
0.2586408 -0.39529473 0.2830234 0.105073415 0.33854538 -0.026918266 0.20102175 -0.18038455
-0.24668215 0.1785108 -0.10378274 -0.052930538 -0.06619524 -0.05261613 -0.40404078 0.43828997
0.12308536 -0.18232438 0.027378134 -0.23994158 0.24101283 -0.14229892 0.10386438 0.002544468
0.1316304 0.35365215 0.22615786 -0.045491822 -0.39209485 0.04151491 0.02977824 -0.17208081
-0.14309312 0.08807754 -0.38935342 -0.15441887 -0.27054828 -0.39636642 0.62172776 0.20218591
-0.4175111 -0.59023416 -0.30559248 -0.04194871 -0.12307034 0.13402182 -0.32824427 0.25445813
-0.26723844 -0.3391953 -0.23994808 -0.077755444 -0.04673684 0.14096671 0.19333555 -0.028017474
-0.2137327 0.046853855 -0.018539684 0.03797678 0.049373996 -0.14157423 -0.23516314 -0.18841165
-0.012278961 -0.26608282 0.04532958 -0.055201598 0.15757933 0.43769178 0.10179309 -0.65499485
-0.007665568 0.1567727 -0.14845988 -0.12978913 -0.33593675 0.2635404 -0.63965 0.5868305
0.069594905 0.18613322 -0.19543028 -0.060097028 0.49241766 -0.425241 -0.00522409 -0.021348609
-0.185204 -0.30038443 -0.1613243 0.14460437 0.07878093 -0.02452449 -0.2984657 0.24097721
0.098633535 -0.10042936 0.09389535 -0.022839116 0.13349107 0.28765944 -0.38253757 0.05166069
0.44399232 0.5449346 0.42006007 0.012185309 -0.25944775 -0.09501306 0.11818349 0.02973937
0.30098066 0.052157402 0.39425132 0.15207826 -0.029537251 -0.108098686 0.18260914 0.19898646
-0.18476887 0.1420351 0.08160146 0.018958746 -0.029821523 -0.10342436 0.22619426 0.43440196
-0.061597068 0.30353934 -0.109196454 -0.19547021 -0.2811375 -0.18317762 0.019396905 0.38820907
0.12134688 -0.019754812 0.07445817 0.16026224 0.15386435 0.090253584 0.6353297 -0.34330598
-0.18411615 -0.032597464 0.16523287 0.013655703 -0.44699803 0.19542907 -0.033310547 -0.07262766
0.18714085 0.20374437 0.11990232 -0.17185113 -0.22515136 0.14334926 0.17616749 -0.20646827
-0.060808763 0.10551812 -0.4896165 -0.15158616 -0.3346393 -0.41288084 0.5846178 0.26465786
-0.3637629 -0.45625505 -0.29028946 -0.14957613 -0.048308924 0.11208418 -0.25129732 0.13168968
-0.4363547 -0.20741408 -0.37142453 0.024103152 0.17116857 0.12084934 0.25479987 -0.11870365
-0.24460152 -0.041251693 0.1947086 -0.07078833 0.025609288 -0.09256751 -0.28897133 -0.32093936
-0.0887023 -0.14113449 0.16053617 -0.09471353 0.0714896 0.31738853 0.0035739462 -0.71397513
-0.21351339 0.11982071 -0.23780167 -0.32196626 -0.50929636 0.18978433 -0.7209214 0.6675521
0.23139557 0.21984217 -0.20538579 -0.13140841 0.47100732 -0.38181612 0.030360868 -0.0049586208

attention.kv_proj.weight f4 [128, 64]
00000000: 0532 abbe d811 2b3e b64a d33d a07f a3be
00000010: 34eb 563e 0831 12be 0777 04be f1fc 983e
00000020: 085b 9a3d 71bf 133e f313 27be 01ad 9d3e
00000030: b4ad 23be da6a fdbd 3370 94bc 7cad 193e
00000040: 802b 753e 88a1 d8be c1b5 b13d 96d5 41be
00000050: 78dd 33be 3fa2 a83e bb22 053f 1ab3 de3d
00000060: 6bd5 c8bd 2fdb be3d 5156 23be 8f66 123e
00000070: cfd8 0bbe f77e 65bd fa93 023f 1b58 d1bd
00000080: 268a 053d 7e15 853e d636 de3c d2ae 193e
00000090: 60e8 58bd ba6c d23e ff8b ddbd a83e a7be
000000a0: 2997 4b3e 6606 053e 8fa3 20be 75a6 473c
000000b0: 0de2 2ebe 6051 20bd 1842 083e 4f2b 333d
000000c0: fea8 abbe 42c9 c93b d772 a1bd 71ed ee3d
000000d0: f693 483d 36d1 963e fd99 533e f0c6 b3bd
000000e0: 75ad 793d 8a6f b2bd 328b 58be d092 8b3d
000000f0: 004a 543e beb8 873e 6ae3 723e 948e 403c
00000100: 407a 803d afb2 83be b7ed 2fbe d363 8b3c
00000110: 0fe7 b0be 173f 753e c83f 94bd e657 4d3d
00000120: a20a 32be 182f 73be ecda 94be ed41 3b3d
00000130: 17de 11be 38fc e33e aecd 883d 0ff6 243e
00000140: 7309 b53d 6c94 30bd 52c1 9abe f01f 163e
00000150: b35b 9fbd 2c64 c0bc 23fd 61be 1f32 fabd
00000160: d5c7 8abe d579 5a3d 9edf 5e3d 498b b8bd
00000170: 363f 13be a378 373e fadf 843c f38f 4a3e
00000180: 66b8 3d3e efdf f13b 2bec 2a3d 73f3 dbbe
00000190: 1949 cebe e3e3 8dbe 41f4 e33d 4b58 563e
000001a0: 08cd d43d 7423 7ebe cefb 3b3e cd76 8bbe
000001b0: b153 973e a8f9 3b3e aca4 07be 32ae c83e
000001c0: 7ee0 1ebe 7380 683e 79dd 6e3e 876b 87bd
000001d0: 7b07 28bd b97e 50be 21be b83c 0049 273d
000001e0: f1c3 df3d d68f 113e b628 49be 4785 303e
000001f0: 2357 3b3c 0f62 e2bd a2fe ddbc ce3b f93d
00000200: 6bfd 8c3e c4f6 98bd fdb9 953d 0ce1 30be
00000210: 36cd 94bd 5d30 c33c c98e 263e 90af 45be
00000220: f260 543d f2fb f53d 9033 a03d 7ad5 7ebe
00000230: f548 1b3e 0ce3 e03c d568 6e3e 7d1b 443d
00000240: b56e af3d c53a 69be 75c9 d8bb 64d5 253d
00000250: 399e 663c 1535 673d 2ce2 8e3d 1792 8fbd
00000260: 8574 b83c 45ed 3dbd e856 b6bc 9267 523d
00000270: 3c41 173e 838e 28be e682 553d 491f 76be
00000280: 122c b0bd f5c3 babc bf9d 223e 905e be3d
00000290: 8bfa 043e d340 81bd 0eeb 81be 5e95 333d
000002a0: c65e 3d3b c492 333e 0df4 e03c 6cd8 653e
000002b0: d823 c33d 4573 07be b921 38bd faa9 e2bd
000002c0: 0017 4d3e 6234 d1bc 5a6b 20be 4a14 dfbc
000002d0: 1d44 a7be 60f3 37bd 23ae 4dbd cf54 6dbe
000002e0: 0d00 92be 24a0 923d 985d 543e fee8 f6bd
000002f0: 810f 153e 4e0b 503e 5769 40be 3b33 953d
00000300: aec8 8dbd 0411 5cbe 04bb 72be 5833 203d
00000310: cfb7 9ebe 74d4 613e c0c2 59be d0d0 ecbb
00000320: d727 efbd cfb1 acbe 0b0d edbd c805 4b3e
00000330: 56f3 19be 24bb 9a3e d49a be3d e1c9 cf3e
00000340: a54c 833d dfac 81be 26d7 8bbe 9195 473d
00000350: 417f b93d 68fa 843e 7286 d4bd 3a6b 09be
00000360: c02c b9be 189f 403e e67a ba3c 8ee1 37bd
00000370: 36d1 a1bd 39b5 9a3e 67b4 e43c f76c 253e
00000380: 5d53 803e 00f7 883d be67 91bd 9c14 a6be
00000390: 3adf b6be c084 19be 899b 4f3d 7ef1 733e
000003a0: 3873 953d 2e64 a2be 319d 30bd 8809 e1bd
000003b0: f77b 1a3e 4464 a03e c4da 4bbe 82ef 2f3e
000003c0: cc54 babe e7b6 bb3e 5e01 723e be32 f43d
000003d0: 4fd4 d13d f1ce 9f3d 5e7f 483d 2f4f 8b3d
000003e0: 4a61 7d3e f7dc 573e 09c0 afbe 07c7 4b3e
000003f0: afd5 8b3e e8ea 843c 152e b4bd 2d22 53ba
-0.334366 0.16706026 0.10316984 -0.31933308 0.2098816 -0.14276516 -0.1293603 0.2988048
0.07536894 0.14428498 -0.16316204 0.30796054 -0.15984231 -0.12373896 -0.018119907 0.15007585
0.23942375 -0.4231074 0.08677245 -0.18929133 -0.17564952 0.32936284 0.5200612 0.10874005
-0.09806331 0.0931915 -0.15950896 0.14296935 -0.13656925 -0.056029286 0.51007044 -0.10221883
0.03260245 0.2599296 0.027125757 0.15008095 -0.052955985 0.41098577 -0.10817718 -0.3266499
0.19881882 0.12990722 -0.15687393 0.012185683 -0.17078419 -0.039140105 0.13306463 0.043742474
-0.33527368 0.006158025 -0.07883232 0.11666382 0.04896923 0.2945649 0.2066421 -0.08778179
0.060956437 -0.08712681 -0.21146849 0.06815112 0.20731354 0.26508135 0.23719564 0.011752743
0.06273317 -0.25722262 -0.17180525 0.017015373 -0.34551284 0.23949848 -0.07238728 0.050132655
-0.17386869 -0.23748434 -0.29073274 0.04571717 -0.14244877 0.44528365 0.06679855 0.16109489
0.08839693 -0.043110296 -0.30225617 0.1466062 -0.07781162 -0.023485266 -0.2206922 -0.12216591
-0.27105585 0.053338844 0.054412477 -0.090109415 -0.14379582 0.17917113 0.016220082 0.19781475
0.18527374 0.0073814313 0.041729134 -0.42959175 -0.40290144 -0.27712926 0.11130572 0.20932119
0.10390669 -0.24818212 0.18357775 -0.27239075 0.2955604 0.18356955 -0.13246411 0.391954
-0.15515324 0.2270525 0.23326673 -0.06612306 -0.04102276 -0.20360841 0.022551598 0.040841103
0.10926045 0.14215025 -0.19644436 0.17238341 0.011434349 -0.110538594 -0.027098957 0.1216961
0.27537093 -0.07468942 0.07310865 -0.17273349 -0.072657034 0.023826772 0.16265406 -0.19305253
0.051850267 0.120109454 0.07822335 -0.24886122 0.1516455 0.027452014 0.23282178 0.047877777
0.085660376 -0.22776325 -0.0066158124 0.04048671 0.014075809 0.056447107 0.069767326 -0.07010286
0.022516498 -0.046368856 -0.022258237 0.051368304 0.14770979 -0.16460614 0.052126788 -0.24035372
-0.08602156 -0.022798518 0.15880488 0.0929538 0.129862 -0.06311192 -0.25374645 0.04384362
0.00288956 0.17536455 0.027460122 0.2244584 0.09528321 -0.13227566 -0.044954035 -0.11067577
0.20028305 -0.025537673 -0.15665951 -0.027231354 -0.32669154 -0.044909835 -0.050214898 -0.23176883
-0.28515664 0.07159451 0.20738828 -0.120561585 0.14556696 0.20316812 -0.18790184 0.07285162
-0.06923042 -0.21490866 -0.23704153 0.039111465 -0.3099961 0.220537 -0.21265697 -0.007227041
-0.11677521 -0.33729407 -0.115747534 0.19826424 -0.15034232 0.30220902 0.09306875 0.4058371
0.06411103 -0.25327203 -0.27312583 0.048726622 0.09057475 0.25972295 -0.10377206 -0.1341981
-0.36166954 0.1881069 0.02276368 -0.04489284 -0.07901232 0.30216387 0.027918054 0.16154848
0.250636 0.066877365 -0.070998654 -0.324376 -0.35717183 -0.14992046 0.05068544 0.2382259
0.07297367 -0.31717056 -0.04311866 -0.10988146 0.15086351 0.31326497 -0.19907671 0.17181209
-0.3639282 0.3666298 0.23633334 0.11923741 0.10245573 0.07803143 0.04894959 0.068022124
0.24744144 0.21080385 -0.343262 0.19900142 0.27311465 0.016225293 -0.08797852 -0.0008054104

attention.out_proj.weight f4 [64, 64]
00000000: 4a80 6fbd 3218 f9bd 7667 963d 1249 06bd
00000010: f960 c33d 91ed b6bc 7fba 9a3d a039 b43d
00000020: 4403 0abf 55cd 983e bff2 f63d 51df 54be
00000030: 3c75 9e3e d8bc 98be 19f4 16be 0a0d cfbe
00000040: d431 4e3e d517 55be 3d22 77bc b441 34be
00000050: 490c 09be bb67 593e 87f8 843d 1883 abbd
00000060: 9bf4 99bd 3aac 463e be56 3fbe 0d34 11bf
00000070: 0944 6abe b72f 6a3b 42a9 aa3e b9fd 543e
00000080: 2bbc 173e a405 bbbd 9a06 1cbe 9774 9d3d
00000090: 1761 afbd de39 8b3e febf 3c3c 6a50 9d3e
000000a0: ae7e 87be e34f 62bd 2c0b f23d 67b5 1f3d
000000b0: 5857 1b3e dd31 a23e facd c63e 1ba0 0ebe
000000c0: 77f1 9f3e 09df 953e cb54 30be ca33 2cbe
000000d0: 60a2 67bc 33bb 763e ffc2 b03e e0a1 3dbe
000000e0: dd9f 9cbe fc68 92bc 9a9b ce3d 779d de3d
000000f0: 69c8 b1bd 08ea bbbd a08c 8e3d 700f 983e
00000100: 939d 8bbe c66a ab3e 9025 4d3e 1d0a f93c
00000110: 439d cfbc b35b c2be f305 553e 4a81 c2be
00000120: b3e2 f3be aba9 a8be f550 8abe 5783 04bf
00000130: cd5a 2c3f 0ebf 10bf 7382 b1bd 7a04 44bf
00000140: 9374 92be f405 753e e0fa 3d3c d71e fe3d
00000150: 8f1d 5dbd d735 51bc aad4 0fbe e7af 353e
00000160: d175 a2bd 27db a33c 90f1 d9bd 5fbb 9ebe
00000170: 6d44 81bc fdd9 21be 50fa 7b3c 4318 863e
00000180: d2db 3cbc 60e0 253d 1bc8 4c3d 4a80 1bbe
00000190: 46b2 21bf 6a0f 02bd a359 c13e 2aa8 d6bd
000001a0: c52a 4c3f eecf 403f 50ed 453f 49dd 97be
000001b0: 628f c0bc 7cbe 78be 47d9 37bd ea67 9ebe
000001c0: c495 cc3e 7bed c03e eb15 f9be da40 53be
000001d0: 6431 333e 2000 d63e f76e 363e ef6f 483e
000001e0: 2595 083f b698 c1bc 4732 81be 8585 49be
000001f0: 5acd 2bbe daed 253e 3df6 3dbe fd0f 4e3e
00000200: 184d 14be 4d64 a23e aff9 6fbd ee5b 563e
00000210: 652a cc3d 8cf8 50be 274c 1c3e 290b 2fbe
00000220: d96e c23d 9331 1e3e 289d 123d 585f f33d
00000230: 056c 60be 647e 803e 4441 21be 340f 9e3e
00000240: 8c0f 813e 94b3 ffbd f914 12bd fbce 56be
00000250: 4597 ae3c e47c 3e3e 0872 41bc 4632 59bd
00000260: 981d 0bbe d43d c33d 1d42 e4bc 58df a0be
00000270: af73 1b3e 0494 5fbd bc95 323e bfd5 a7bc
00000280: 88b9 1e3e b301 e2bd 3e5f 2cbe d862 0a3d
00000290: c8f7 033d 1c78 b13d 1140 d43d 70a2 673e
000002a0: adbd 18bd bf86 64bd 4a05 323d 4472 343c
000002b0: 9774 c73d 41e5 463d 2f1e e7bc e89c a3bd
000002c0: 61aa 1dbf 0c8b f8be b9dd 0e3c 431b 193f
000002d0: 8779 92bd 21d3 b9be 206c 4dbe ca1b 913e
000002e0: da40 f33e c30c 293d 4c01 98be 8caa a9be
000002f0: 71bb 24be 734a 123e 3d60 98be 14ba ea3d
00000300: b87c 0dbe 5fbc 313d 70da 68be 5003 323e
00000310: a447 a13e 73bc d93d 5b63 243e 1521 333e
00000320: 9b85 ae3b 5b41 9f3e 232a 013d 9597 b83e
00000330: 2889 8cbe c760 db3e fbc7 9b3d 867a 093e
00000340: 1c5c 133e bb48 b2bc 3cb6 c7bc 3d13 20bd
00000350: ff23 ee3d 29ea dc3c 3c34 0c3e 92f0 efbd
00000360: d52c 8b3e 29f3 11be 3360 593e 1f08 4a3e
00000370: b907 bdbd 1673 683e 41ae 13be 58db 9abe
00000380: 1306 79bc 6cac 91bc acbd a63d 4814 04be
00000390: 859e f83e 97af 45be 0174 43be 1cff 473d
000003a0: eabd 93be 0e1f 11bf 6f34 3fbf 798b db3c
000003b0: 7a7b 7ebe 0863 ee3d 5c95 7cbd a991 fa3e
000003c0: aeaf 883d 186b e7bd 12e6 42bc 5b8c 99be
000003d0: 1f9c 10be e773 11be 2812 f33d 5ed0 dabe
000003e0: 4678 b33d d7f7 ebbd 7c93 dcbd b7f2 bb3d
000003f0: bf9f ffbd 6066 b13d fe9c 7dbd 2314 eabd
-0.058471955 -0.12162818 0.07343952 -0.03278453 0.095399804 -0.022330077 0.075551026 0.088000536
-0.5391123 0.29844156 0.12058019 -0.20788313 0.30948818 -0.29831576 -0.14741553 -0.40439636
0.20136195 -0.20809872 -0.015083847 -0.17603189 -0.13383593 0.21230976 0.06492715 -0.083746135
-0.07517358 0.19401637 -0.18685433 -0.5672005 -0.22877516 0.0035734007 0.33332258 0.20799913
0.14817874 -0.09131935 -0.15236893 0.076882534 -0.0856344 0.27192587 0.011520384 0.30725414
-0.26463836 -0.055251967 0.11818537 0.038991358 0.15170038 0.31678668 0.38829023 -0.13928263
0.3123891 0.29271725 -0.17219846 -0.16816631 -0.014137834 0.24094848 0.3452377 -0.18518782
-0.30590716 -0.017872326 0.100882724 0.10869878 -0.08680803 -0.09175497 0.06960416 0.29699278
-0.27268657 0.334799 0.2003386 0.03040033 -0.025343543 -0.37960586 0.2080305 -0.37989265
-0.47633895 -0.32941946 -0.2701489 -0.5176291 0.6732605 -0.56541526 -0.08667459 -0.7656933
-0.28604564 0.23928052 0.011595458 0.12408226 -0.053983267 -0.012769184 -0.14045969 0.17742883
-0.07932628 0.02000196 -0.106417775 -0.31002328 -0.015779698 -0.15805812 0.015379503 0.26190385
-0.011527019 0.040497184 0.049995523 -0.15185657 -0.6316265 -0.03175298 0.377637 -0.104812935
0.7975276 0.75317276 0.77315235 -0.29661015 -0.02350587 -0.24291414 -0.044884946 -0.30938655
0.39958012 0.37681183 -0.48649535 -0.20630208 0.1749931 0.4179697 0.17815767 0.1957395
0.53352576 -0.023632389 -0.2523367 -0.1967984 -0.16777554 0.16204014 -0.18550964 0.20123287
-0.14482534 0.31717148 -0.058587726 0.20933506 0.099690236 -0.20407313 0.15263425 -0.17094101
0.09493799 0.15448599 0.035794407 0.1188342 -0.21916206 0.25096428 -0.15747553 0.30870974
0.25207174 -0.12485424 -0.035664532 -0.20977394 0.021312365 0.1860233 -0.011806972 -0.05302646
-0.13585508 0.09533277 -0.027863557 -0.31420398 0.15180849 -0.054584518 0.17439932 -0.020487664
0.15500462 -0.1103548 -0.16833207 0.03378567 0.032218724 0.08665487 0.10363782 0.22620559
-0.037290264 -0.055792566 0.043462075 0.011013571 0.097390346 0.048558477 -0.028212635 -0.07988912
-0.615881 -0.48543584 0.008719855 0.59807223 -0.07152086 -0.3629389 -0.20060778 0.28341514
0.47510415 0.041271936 -0.2968849 -0.3313793 -0.16087128 0.14286213 -0.29760924 0.11461273
-0.13817108 0.043392535 -0.22739577 0.17384076 0.3149997 0.10631647 0.16053526 0.17493089
0.0053259856 0.3110455 0.031534325 0.36053148 -0.27448392 0.42847273 0.076065026 0.13425645
0.14390606 -0.021763196 -0.024378888 -0.039080847 0.116279595 0.026967125 0.13691801 -0.11715807
0.27182642 -0.14252914 0.21228103 0.1972966 -0.092299886 0.22700152 -0.14421941 -0.3024547
-0.015199202 -0.017782412 0.08141646 -0.12898362 0.4855844 -0.19305263 -0.1908722 0.048827276
-0.2885583 -0.5668801 -0.7468938 0.026799904 -0.2485179 0.116399825 -0.061665878 0.48939255
0.06674133 -0.112997234 -0.011895673 -0.29989895 -0.14122055 -0.1420437 0.118686974 -0.42737097
0.08763175 -0.11521881 -0.10770318 0.091771536 -0.12481641 0.086621046 -0.061917298 -0.11429622

attention.out_proj.bias f4 [64]
00000000: cf16 973e 7a44 b0be c774 34bd e709 d23e
00000010: 6e9c 0c3e 6a6e b2bd 111f f8bc 3194 093e
00000020: c6ce 933e 844a b9bd f89f e8bd bcde 9bbd
00000030: 0460 a1bd 5841 ca3d a862 28be 545f cebc
00000040: 0f43 d23d b834 843e 5239 603e dffe b83e
00000050: 8c2c 803e ef5c 843d a835 11bc dea8 c8bd
00000060: 3d53 95bd 41e0 85be 2bc2 b43e 48ce 823e
00000070: 4b7d f8be c034 d73d 347d 62bb 4b34 16be
00000080: f88f a5bd c17c ae3e fc55 2e3e e7ca 77be
00000090: 32d0 823e 3cae 0bbf 32e3 e1bd e728 e43d
000000a0: 81e6 1c3e 3971 3b3e 0610 e9bd b43c ad3d
000000b0: 0822 623c e4e7 953d 9134 0fbf f391 c43d
000000c0: d76d 11be 258a 263e ed63 1c3e 1e99 2f3e
000000d0: 3467 83bc b3a0 ac3e f707 b6be 816b 543e
000000e0: b8bf 9cbe e235 1cbd 7667 ac3d 2996 433e
000000f0: f15d 743e eb43 833e 3562 07be 76c5 d7bd
0.2950959 -0.34427243 -0.04405668 0.4102318 0.13731548 -0.08712466 -0.030288251 0.13435437
0.28868693 -0.09047416 -0.113586366 -0.076108426 -0.07879642 0.098757446 -0.16443884 -0.02519194
0.10266697 0.2582147 0.21896866 0.3613195 0.25033987 0.06463038 -0.00886289 -0.09797834
-0.07291267 -0.26147655 0.35304388 0.25548005 -0.4853309 0.10508108 -0.003455949 -0.14668386
-0.080841005 0.34079555 0.17024988 -0.24198495 0.25549465 -0.54562736 -0.11029662 0.11140614
0.15322305 0.1830491 -0.11380009 0.08458844 0.013802059 0.0731962 -0.55939585 0.0959815
-0.14202057 0.16263635 0.15272494 0.17148253 -0.016040422 0.33716354 -0.35552952 0.20744134
-0.3061502 -0.038137324 0.08418171 0.1910025 0.23863961 0.25637755 -0.13221057 -0.105357096

norm1.weight f4 [64]
00000000: fbf9 453f fef5 ad3e 0bde 2e3f 3ef8 983f
00000010: 2198 a33f 3f24 4a3f 0c67 8c3f 8fdd 503f
00000020: 947a 6d3e 4819 333f 1165 713f 2c97 883e
00000030: a09d 153f 17c9 1b3f 50cc 423f 8442 da3e
00000040: 5171 973f 710e 673f 419d 1240 1d18 c53e
00000050: 53af d33f cb7a 993f 4d2e 303f 2b66 323f
00000060: b735 0b3f 4b0e b53f afdf a33f 570b 093d
00000070: 99b2 473f 823d 873f 5374 8d3f a4da 553f
00000080: 2824 0b3f 4b08 593f 0718 463f 6e97 823f
00000090: 1920 843f 31b7 853f e6d2 2b3f 2624 3e3f
000000a0: 18d4 803f 553b 533f d728 423f b7e3 863f
000000b0: 70d5 873f 9972 853f 30fd 2b3f 1781 613f
000000c0: eb30 1c3f decd fc3e f2b1 513f ddd7 a23f
000000d0: ebc7 893f a00a 8c3f 802b a93f 628e 963f
000000e0: 6a31 2c3f 8f47 b33f b7ff ee3f 1945 eb3e
000000f0: 1176 183f cad7 953f af70 2fbc 3352 273f
0.77334565 0.3397674 0.6830756 1.1950758 1.2780801 0.7896156 1.0968947 0.8158807
0.23191291 0.6996045 0.9429484 0.26677835 0.5844364 0.60853714 0.76093006 0.42628872
1.1831456 0.9025641 2.290848 0.3849496 1.653788 1.1990598 0.6882065 0.69687146
0.5437884 1.4144987 1.2802638 0.03345808 0.78006893 1.0565646 1.1051124 0.83536744
0.54352045 0.8477828 0.7738041 1.0202463 1.0322295 1.044653 0.6711868 0.7427391
1.0064726 0.8251241 0.75843567 1.0538243 1.0612011 1.0425597 0.6718321 0.880876
0.6101214 0.49375814 0.8191215 1.2722126 1.0764135 1.0940742 1.32164 1.1762202
0.672629 1.4006213 1.8671788 0.45951155 0.59555155 1.1706479 -0.010708018 0.653598

norm1.bias f4 [64]
00000000: cdf1 c4bd 2bbc 6f3e 3d30 97be 4ae9 883c
00000010: dd3f a23c b7dd 89bd b5a4 aaba a941 003e
00000020: 64f1 ebbd 93a5 0dbe 6c94 c3bc 378a 753d
00000030: b715 0dbe 5292 063e 0326 b1bd 74a5 38bd
00000040: 6a88 5a3e c7a3 2a3d a3ee 64bd b5b9 73be
00000050: 9a5b f13c 6ac9 4dbd 579b 6d3c 1fa8 26be
00000060: 3486 5bbe 6aa0 b03c 8224 d0bc f828 aabc
00000070: 0bf6 12bd 6b05 2dbd a308 d93b fe51 aebc
00000080: 00ae b63d 9ed5 13be ff4c 153d c74f a6bd
00000090: 991b 8f3c 46e2 943c c31f bd3d 901d 62bb
000000a0: c254 293c fbe9 463c 85bd 6e3e cfaf a6bc
000000b0: bf59 d03d c8f7 35be e9b4 953e 5edf 3e3d
000000c0: ffca a2bd d12f a13e ffae f2bd 9c21 d3bd
000000d0: 8799 af3c 377c 80bd 1688 2e3d 1675 c7bd
000000e0: 9320 343d f7ce 9cbd 540b 8c3b 4d72 ac3c
000000f0: 71f4 a3be fb0a 3b3d b1a4 243b 1c2b b83e
-0.09616432 0.23411624 -0.2952899 0.016712803 0.019805843 -0.06731742 -0.0013019057 0.12525047
-0.11520651 -0.13832693 -0.023874484 0.059946265 -0.13777815 0.13141754 -0.08649828 -0.045079663
0.213411 0.041660096 -0.055891644 -0.2380131 0.029462624 -0.05024091 0.014502368 -0.1627507
-0.21437913 0.021560866 -0.025408033 -0.020771489 -0.035879176 -0.042241495 0.006623344 -0.021279331
0.089199066 -0.14436957 0.036450382 -0.08120685 0.017469214 0.018174302 0.09234574 -0.0034502484
0.010335149 0.012140746 0.23314483 -0.020347504 0.10173368 -0.17770302 0.29239586 0.04659974
-0.07948875 0.31481794 -0.11849784 -0.10309145 0.021435512 -0.06273692 0.04261025 -0.09739129
0.043976378 -0.07656663 0.0042738114 0.021050597 -0.32022431 0.04566477 0.0025122578 0.3597039

norm2.weight f4 [64]
00000000: fbcc 2e3f 0bf4 663f d9b4 793f c451 403f
00000010: c17f 563f 5239 593f e2fa 373f 63b4 c83e
00000020: def0 cd3e 5637 863f a4e5 f63e fa92 a73f
00000030: ceaf 223f 32dc 363f 2c46 423f a4ad 173f
00000040: 77c0 453f fc79 7c3f f9c8 833f 5f96 1d3f
00000050: cf5f 613f d9d1 1d3f 7a54 3e3f 7bee 8a3f
00000060: 61a8 003f 5ca3 523e cfc4 783f efeb 343f
00000070: 3db1 c03e 2f90 4c3f b95f 033f f4d4 443f
00000080: a4ce 3d3f 4b72 2d3f 667a 313f 9028 173f
00000090: a9ea 423f 6173 d43e cefc 143f 05e0 ee3e
000000a0: a647 fa3e 1300 0b3f f8fd 503f bb89 9b3e
000000b0: bec0 e33e 842a fc3e 7c1e 253f 9b2f 193f
000000c0: 7379 fb3b 2c28 b53e 75a6 153f abe7 303f
000000d0: b2bd 0f3f b2f5 093f bb92 1e3f b36c 123f
000000e0: d007 9a3f caa8 6f3f 36c4 283f 388a 433f
000000f0: 8156 6c3c 58cf 3d3f c6d3 253e 4bab 2e3f
0.68281525 0.9021613 0.97541577 0.75124764 0.83788687 0.8485309 0.7186719 0.39200124
0.4022283 1.0485637 0.48222077 1.3091729 0.63549507 0.7142974 0.75888324 0.5924933
0.77246803 0.98623633 1.0295707 0.61557573 0.8803682 0.6164833 0.7434765 1.0854028
0.50256926 0.20570129 0.97175306 0.70672506 0.37635222 0.79907507 0.51317936 0.7688744
0.74143434 0.6775252 0.6932739 0.5904627 0.76139313 0.41494277 0.5819825 0.46655288
0.48882788 0.5429699 0.81637526 0.30378518 0.44482988 0.49251187 0.6449964 0.59838265
0.00767439 0.3538221 0.5845712 0.691035 0.5614883 0.53890526 0.6194264 0.5719711
1.2033634 0.93616927 0.65924394 0.7638278 0.014424921 0.74144506 0.16194066 0.6823012

norm2.bias f4 [64]
00000000: 963e 2abd 24aa 8bbb dede 3ebd 09b0 d43d
00000010: c43c 8c3d be11 d0bd 21b4 b3bd 7d15 c2bd
00000020: a545 56be 5db7 2ebe 7490 3cbe 588f a6bb
00000030: ee6a 0b3e 7dfc bcbb 91a6 28bd d412 b43d
00000040: f9a8 0d3e 2005 e63d 7dd3 b03d 9422 42be
00000050: d583 bb3d 5f09 c33c f2eb 5cbd d7db 2bbe
00000060: 189b 4c3d f92f 13bd 6a20 0d3e 6b2d c33d
00000070: 238d b53e 5f72 68bc edaf 27bd 6b82 703c
00000080: 8f5b f0bd d994 3fbe 0665 913d 0eba 143d
00000090: d68c 0f3d 3653 b9bd 1b5d a43d 6f41 3dbd
000000a0: fcf1 003e 1e82 ce3a e395 6bbd b7e0 4a3c
000000b0: 6b6c 853d 176f fcbd 9235 663e ad60 e23c
000000c0: 31d8 543c 0f8e 1d3d dd5f 483e da10 9d3d
000000d0: 778e 8cbd 1ca7 673d 46d8 9dbd d67c 003e
000000e0: d686 24be 4215 88bd 5458 4ebc 58ca 753d
000000f0: affc 9f3d f5ba d3bc 6fd6 053e 78cf b0bd
-0.041563593 -0.0042622257 -0.04659926 0.103851385 0.068475276 -0.10159634 -0.08774591 -0.09476755
-0.20925005 -0.17062135 -0.1841448 -0.005083006 0.13615009 -0.0057674036 -0.041174475 0.08792654
0.13833989 0.11231446 0.08634088 -0.18958503 0.09156004 0.02380818 -0.053935952 -0.16783081
0.049952596 -0.035934422 0.13781896 0.09530147 0.3545924 -0.014187424 -0.04093926 0.014679532
-0.117362134 -0.18709125 0.07099347 0.036310248 0.03504642 -0.09049074 0.08025571 -0.04620498
0.1259231 0.0015755331 -0.05751599 0.012382678 0.0651482 -0.12325876 0.22481373 0.02763399
0.012990997 0.038465556 0.19567819 0.0766923 -0.068631105 0.056555852 -0.077072665 0.12547621
-0.16067061 -0.066446796 -0.012594301 0.060007423 0.078118674 -0.025845984 0.13070081 -0.086333215

center_proj.1.weight f4 [64, 15]
00000000: 9842 5e3f 6fad d6be e2f9 1c3f fbfc c13e
00000010: 7b55 25be 85ea 253e 0864 de3e aff8 7dbe
00000020: fe2f 9a3d c267 4c3f 8675 5e3e 32d7 d13d
00000030: 9150 6b3e d7e1 563e df26 f03b 6740 d43f
00000040: ce8c 8f3e 951c 713f dae9 6e3f 3e3d 7cbd
00000050: b1ed 053f 1d7b 0c3f 0f3a 97bd 1bcd 983e
00000060: 80ad 3c3e a260 aa3e 3db5 033f 36af 92be
00000070: e822 4f3d 8d2e 563d 931a ab3f d527 a1be
00000080: 42d9 8c3e 6791 173f 0156 f1be 4977 1dbd
00000090: 99ee 323f eec2 423e 33ca e53e 62f2 a23e
000000a0: 23c5 ae3d d945 0d3f cbaf f3bc 599d 993d
000000b0: b427 85be ef8f 8ebf 6e1d 0f3d 35f2 38bf
000000c0: 30d5 30bf eb20 c33d 0660 e0bd f1e1 b6be
000000d0: fac6 a83d adfb bdbe 513b cebe 272e 233d
000000e0: 5793 4cbe 261d c83d 6e9a 8abd 39d2 2cbe
000000f0: 2b1c 90bf ecb2 263f cd38 b2be 5481 11be
00000100: c479 ed3e 2b1a 603e 7dac a9be 0f61 eb3d
00000110: 70bd c33d 8ece 5abe cd36 073e e18c c13d
00000120: b65f 1f3f 5fe3 8d3d 9923 1a3f acfa 813f
00000130: d928 3bbe 2e4e 233f d8df 313f d17e 04bf
00000140: 82a6 3f3e 65f9 d03e e343 91be e8a5 e43d
00000150: 2df2 133f a5ae 253e ccc4 013f ba1e febe
00000160: 3ca6 8b3e da94 d93d 0ffb 693f 8558 2f3f
00000170: 0846 e13e 80ab 333f cba3 163e 8ca4 e03e
00000180: 6ba5 233f cfad 943e 7437 cf3e 77fc d6bc
00000190: b66d 82be e24e b6bc 450e 1abe 0e70 50bd
000001a0: 3034 62bd dbf3 cabd 3999 14bf d43d 3cbf
000001b0: 4d66 b8be f762 59be 2548 70be 41f4 e8bd
000001c0: fa60 95bd 4aa1 483e 787c 6f3e 1318 ad3e
000001d0: 270d 6c3e e8cf 193f 3954 de3e dc9b 283f
000001e0: 5fb9 0bbf 866d 3c3e 5b2c d1be 77af b3be
000001f0: 4a34 b53e b8e6 8bbe 8d17 7ebc cb7d b2be
00000200: a6fe 3abe 8848 f1bb a294 fa3c 0003 e6be
00000210: 9e1e 0abd 7e17 d83b f0f6 dbbe 6798 c63f
00000220: 2d93 5cbe c8a4 543f 6a67 473f d383 d2be
00000230: d576 013e d471 f33e 0659 2cbe 0ad0 e93e
00000240: 5442 ef3e c71f 913c 701a e63e 9954 c93d
00000250: c427 9e3e 698b 2e3e 5a2a 83bd 29b1 2d3f
00000260: 9c22 d33e 7beb 123d 00ed cc3e ab25 9b3e
00000270: eb99 9cbc eaf5 59be 76d0 7bbd bb4b 86bd
00000280: b97a 52be 3f95 08bf 01e8 fbbe 3b2b 33bf
00000290: 7ab6 4bbf 7d72 2dbf aa5e a53e 6c8c d33d
000002a0: 95b0 93be 165d 193f 2cb0 ae3e 2dc3 9ebe
000002b0: 1039 86bd d6b9 513c 0309 f2bd dfae a0be
000002c0: d7eb a6be cced 8dbd c378 01bf c2ce e1be
000002d0: 4384 45bf 524c 993e 64d4 15be 9db9 1abf
000002e0: 3cc8 173f 4293 143e 36ba 01bf d5c1 283e
000002f0: 04d2 8f3e 7ceb 68bd 79b4 473e a9a8 783e
00000300: 8f85 9b3e ef95 133e 6912 e03e 34e3 05bf
00000310: 22a9 3e3f 0e37 89be c87e 35bd 5a1a 403f
00000320: 961c 893d bc57 adbd 7326 0b3e f937 143c
00000330: 8493 c3bd b96d cebd a839 d9be 4d02 7c3d
00000340: f428 acbd de50 853e ec73 d93f cec3 c03d
00000350: b9a9 383f 7f5b 3b3f 6b4a 8bbe c758 043e
00000360: 2115 223f f459 bc3d 4248 9b3d 19be db3e
00000370: fce0 bb3d 0abf 193e 104e f6bd 443e 853e
00000380: 773d d83d 4ce7 983f 48bf f5be 7922 0a3f
00000390: ce33 143f 54ab a0be b9aa 51bd 577d 9f3e
000003a0: d56b 843d f3bd 813e be6b ca3e 36c1 e5bd
000003b0: d096 d7bd b2fb a73d 9881 d03a 5c77 45bd
000003c0: b44d 3fbf daf7 1fbf eb95 78bf ddef febd
000003d0: 2360 3abe c151 bcbe 18fe 0c3e db1c e23d
000003e0: 8237 9ebd 5817 b6bd 4555 4a3e 36cd 143e
000003f0: 61e4 9e3e b74c b33d 8e4e 8e3c 5bb4 76bf
0.86820364 -0.41929194 0.6131879 0.3788832 -0.1614589 0.16202743 0.43435693 -0.24801897
0.07528685 0.7984582 0.21724519 0.102461234 0.22979952 0.20984589 0.0073288525 1.6582154
0.28037113 0.9418424 0.9332558 -0.061581843 0.52315813 0.54875356 -0.07384121 0.29843983
0.1842556 0.3327685 0.5144842 -0.286493 0.0505704 0.052290488 1.3367485 -0.31475702
0.27509505 0.5920624 -0.47135928 -0.038443837 0.6989532 0.19019672 0.44880828 0.31825548
0.085336946 0.55184704 -0.02974691 0.07500715 -0.26006854 -1.1137675 0.034940176 -0.7224458
-0.690753 0.09527763 -0.10955815 -0.35719255 0.08241077 -0.37106076 -0.4027963 0.039838936
-0.1997808 0.097711846 -0.067677364 -0.16877069 -1.1258596 0.65116763 -0.3480896 -0.14209491
0.46381962 0.21884982 -0.3313941 0.11493122 0.09557617 -0.21367857 0.13204499 0.09450699
0.6225542 0.06928133 0.6021057 1.0154624 -0.18277301 0.6379117 0.69482183 -0.51756006
0.18715861 0.40815273 -0.28372106 0.111644566 0.57791406 0.16179903 0.50690913 -0.49632818
0.27275264 0.10624094 0.9139871 0.68494445 0.43998742 0.70183563 0.1471092 0.4387554
0.6392428 0.29038855 0.40471995 -0.026243431 -0.25474328 -0.022254411 -0.15044506 -0.050888114
-0.05522555 -0.09909793 -0.580463 -0.7353184 -0.3601555 -0.21229158 -0.23465021 -0.11374713
-0.072938874 0.19592777 0.23387325 0.3380743 0.23051892 0.60082865 0.43423632 0.6586282
-0.5457973 0.18401155 -0.40854153 -0.35094807 0.35391456 -0.27324462 -0.015508545 -0.34861597
-0.18261203 -0.0073633827 0.030588452 -0.44924164 -0.033720605 0.0065945974 -0.42961836 1.551526
-0.21540518 0.83063936 0.7789217 -0.411162 0.12642987 0.4754778 -0.16830835 0.45666534
0.46730292 0.017715348 0.44942045 0.09830589 0.30889714 0.17045368 -0.06404562 0.6784845
0.41237342 0.035869103 0.40024567 0.30302176 -0.019116363 -0.21285215 -0.0614781 -0.06557413
-0.20554627 -0.5335273 -0.49200442 -0.6998784 -0.7957531 -0.6775282 0.32298785 0.10329518
-0.2884566 0.5990766 0.34118783 -0.31008282 -0.065538526 0.012800654 -0.11818125 -0.31383416
-0.32601807 -0.06930122 -0.5057489 -0.44103056 -0.7715494 0.2994104 -0.14631802 -0.60439473
0.5928991 0.145093 -0.5067476 0.16480191 0.28089917 -0.0568652 0.19502439 0.24283089
0.30375335 0.14412664 0.43764046 -0.5229981 0.74476826 -0.26799816 -0.04431036 0.7504021
0.066949055 -0.08464 0.13588886 0.009046548 -0.09549621 -0.10079522 -0.424268 0.06152563
-0.08406249 0.2603826 1.6988502 0.09412347 0.72133976 0.73186487 -0.27205214 0.12924491
0.6331349 0.09196845 0.075821415 0.4291847 0.09173772 0.15014282 -0.12026608 0.26024067
0.105585985 1.1945586 -0.479975 0.5395885 0.5789155 -0.31380713 -0.051188204 0.31150314
0.0646588 0.25340232 0.39535326 -0.11218493 -0.10526812 0.08202304 0.0015907763 -0.048209533
-0.7472794 -0.62487566 -0.97103757 -0.12448094 -0.18200736 -0.36781123 0.13768804 0.1104066
-0.07725431 -0.08891171 0.1975909 0.14531407 0.31033614 0.087548666 0.017371442 -0.9636895

center_proj.1.bias f4 [64]
00000000: 1722 843e e786 5fbe fa74 d8bd 5df6 fe3d
00000010: 0699 cd3e 8adb 41be 6d12 4abd 8d69 1dbe
00000020: 07c5 a6be d452 15be 7b6a 0fbe 4756 acbc
00000030: e47b ff3e a52d 2c3e 6d29 36be 6e7c 8d3d
00000040: fd74 f9bd 9ec5 213e c4e0 983e f0af 4dbe
00000050: 289a 203e 44b7 f53d dabc 80bc 283c e5bd
00000060: 2405 d43e 0cb0 853e ae9c f33e b4a2 133e
00000070: 71fc 09bd bb0a 8dbd 572a 41be 27e2 8d3e
00000080: ce34 b33e b0c7 7d3e 653b 93be 9725 423e
00000090: e0b7 2bbc 18d9 c13e 906b 443e 5590 3bbb
000000a0: 40ee ff3e 4f56 403d 667b 8c3e 4b8a ea3e
000000b0: 3839 dd3e 9547 443e b93f 5e3e ea01 8a3e
000000c0: 0ade 68bd c54d 9f3e a31b a4be 7642 b03e
000000d0: 69fd e23e 562c 36be 9610 a73e 58b7 353e
000000e0: 61c0 1c3e 4dbb 9fbd f8a8 703e fcc6 743e
000000f0: e1bc 1ebe 8984 483e f633 07bd 2ff0 713e
0.25807258 -0.21828805 -0.105691865 0.12449334 0.4015581 -0.18931404 -0.04933398 -0.15372296
-0.32572195 -0.14582378 -0.14005463 -0.021037234 0.4989921 0.16814287 -0.1778924 0.06908499
-0.12180517 0.15798041 0.29858983 -0.20086646 0.15683806 0.11997846 -0.015715051 -0.111931145
0.41410172 0.26110876 0.47580475 0.14417535 -0.033688013 -0.06886812 -0.18863808 0.27711603
0.35001224 0.24783206 -0.28756252 0.18959652 -0.010480851 0.37860942 0.19181657 -0.0028619964
0.49986458 0.04695731 0.27437896 0.45808634 0.43207717 0.19167931 0.21703996 0.26954585
-0.056852378 0.3111402 -0.32052335 0.34425706 0.44333962 -0.1779035 0.32629842 0.17745721
0.15307762 -0.07799397 0.23501956 0.23904032 -0.15501739 0.19581808 -0.03300854 0.23626779
